AutoEncoder/save_model/test.pt (torch, 942351 bytes, 12 tensors)

encoder.0.weight f4 [256, 387]
000000 87 53 36 3c 09 2b 41 bc 6d ea 19 bd 03 40 13 bd
       0.011128313 -0.011790046 -0.03757708 -0.03594972
000010 66 0b 4e 3b dd 0e dc 3b 02 d2 1e 3d 60 0f b9 bc
       0.00314399 0.006715639 0.038774498 -0.02259034
000020 b7 1f fb 3b 83 a2 ee 3c 08 d4 d4 38 80 32 4a bc
       0.007663693 0.029130226 0.00010148442 -0.012341142
000030 35 52 0e bd c9 3c 01 bc 6b 53 2d bd 90 78 e2 3c
       -0.034746367 -0.0078880275 -0.04231588 0.02764538
000040 e6 76 29 3d 44 ec 00 3d a0 87 2e 3d 1d 28 3a 3d
       0.041373156 0.03147532 0.04260981 0.04544841
000050 9e 3f 33 3d c3 28 d9 bc 6d c8 51 bc 02 b7 fc bc
       0.043761842 -0.026508695 -0.012804133 -0.030848984
000060 c1 6b 25 bd 56 b1 07 bd c4 2b 2d bc 30 12 25 3d
       -0.040385965 -0.033128105 -0.010569517 0.040300548
000070 9c c0 a0 bb 1f 47 ed bc 1b 34 3d 3d ae 06 ad ba
       -0.0049057733 -0.028964577 0.04619227 -0.0013200843
000080 52 51 f1 3c 24 fd 1c 3d 08 3d cc bb 1a 36 80 bc
       0.029457722 0.03832735 -0.0062328614 -0.015650798
000090 16 16 8d 3c 4b e6 2a bd 7c 2d 1c bd a8 29 b4 bc
       0.017222445 -0.04172353 -0.038129315 -0.02199252
0000a0 ee 1f 4c bb 9a 0c 04 bd 56 cc 31 3c aa 6e 4e 3d
       -0.0031146961 -0.03223858 0.01085194 0.050398506
0000b0 91 6d 02 bd b0 d6 ff bc 60 49 19 3d 2c 8f 09 bc
       -0.031842772 -0.0312303 0.03742349 -0.008395951
0000c0 40 f7 65 3c 22 b5 be 3c 11 89 78 3c da 66 c2 bb
       0.014036 0.02327973 0.015169398 -0.005932671
0000d0 34 ba 38 bc 72 36 2d 3d ba 64 b9 bc c2 c9 6f 3b
       -0.011274863 0.04228825 -0.022631038 0.0036588763
0000e0 e9 17 20 bd 94 78 00 3b 33 b1 3e bc 50 07 cf bb
       -0.039085303 0.001960312 -0.011638927 -0.0063180104
0000f0 df 1b 39 3d 6f 2a 0c bd 96 ab c1 3b 12 31 cb bc
       0.045192596 -0.034220155 0.005910347 -0.024803672
000100 50 bf b4 bb d6 c9 e9 3c 9e e9 20 3d 91 92 34 3d
       -0.0055159703 0.028538626 0.039285295 0.04408509
000110 91 7b 20 bd ae 7f 89 3c 23 c5 f0 bc 77 7a 00 bd
       -0.039180342 0.016784515 -0.029390877 -0.03136679
000120 76 39 45 bc e0 06 6d 3b 32 af 48 bd 32 44 0e 3d
       -0.012037626 0.0036167428 -0.048995204 0.034733005
000130 3c 98 9c bc 56 c3 c2 3b bb 4b f7 3c bf 13 e5 bc
       -0.01911556 0.005943696 0.030187478 -0.027963517
000140 84 6b 16 bd fe 56 5f ba de 4b 07 3d 34 63 d3 3c
       -0.03672363 -0.0008519738 0.033031337 0.02580414
000150 18 f9 17 3d 0e 8a b4 3c 44 0c c4 bc 89 06 c5 bc
       0.03710279 0.022038486 -0.02393163 -0.024050968
000160 0e 38 41 bd 60 b5 95 bb 10 cb 9b bc 6c e1 de 3c
       -0.0471726 -0.0045687407 -0.019017726 0.027207099
000170 8a 55 ef bc 4f 07 b9 bb 30 4e 39 bd 36 f8 ab bb
       -0.029215593 -0.005646623 -0.04524058 -0.005248095
000180 d2 8d e1 3c 06 ae fb 3c 75 13 08 bd 30 b0 f9 3b
       0.027533446 0.03072263 -0.03322168 0.00761988
000190 48 a4 b3 3b ea 70 8a 3c c0 dc 93 3b fc 29 7c 3c
       0.0054822303 0.016899545 0.0045123994 0.015390869
0001a0 f7 88 18 3d 3c 52 0f 3c e3 32 27 bd b5 40 2d 3d
       0.037239995 0.008747634 -0.040820014 0.042298038
0001b0 17 33 20 bd 18 3a 91 bc 31 02 c4 bc a1 ae 34 3d
       -0.039111223 -0.017727897 -0.023926826 0.04411185
0001c0 8c bf d3 bc a0 25 09 3c 24 fd 80 bc 86 a7 f0 3c
       -0.025848173 0.008370787 -0.015745707 0.029376756
0001d0 9b c4 19 3d 1e 90 df 3c 32 f4 e0 3c 94 ad 33 bd
       0.037541013 0.0272904 0.027460191 -0.04386671
0001e0 c8 71 94 bb 0c 4c 66 3c d6 8b 18 bd 05 b8 b0 3c
       -0.0045301653 0.014056217 -0.037242733 0.021572122
0001f0 e7 d1 3d bd 55 04 d4 bc 7b 5d c6 3b 27 5e 10 bd
       -0.046342757 -0.025880972 0.006053624 -0.03524604
000200 40 2c 38 3c 8f df 67 3c 6f ed 21 3d 33 77 23 3d
       0.011241019 0.014152422 0.039533075 0.0399086
000210 9c da 61 bc 88 55 2e bd b9 b5 11 3d a7 15 e0 bc
       -0.013785031 -0.042562038 0.035573695 -0.027354075
000220 d6 00 26 bd 2e 0e 8d 3c dc 2c 13 3c 40 b6 49 3b
       -0.04052814 0.017218675 0.008982863 0.0030778795
000230 f7 73 09 bd 3e cd 8a 3c ae 99 37 bd 27 00 ed bc
       -0.03355786 0.01694357 -0.044824295 -0.028930737
000240 b0 77 61 bb c6 f6 d7 3c 49 86 a9 bc 57 81 f0 bc
       -0.0034403615 0.026362788 -0.020693915 -0.029358549
000250 72 81 ba bc a0 b8 ab 3a 29 8a 3e bd 04 fb 9f bc
       -0.022766802 0.0013101287 -0.04651848 -0.019528873
000260 4d 3a 25 3d 96 5a cc 3c 8a 32 23 bd 5d 7c c1 bc
       0.040338803 0.024945538 -0.03984312 -0.023618871
000270 2a e6 42 bd ff 4c 23 3d 15 81 20 bd c0 f4 db 3a
       -0.047582783 0.03986835 -0.039185602 0.0016781315
000280 e2 53 2a bd 70 41 fc 3b e9 5c c6 3c 00 a2 75 bc
       -0.041583903 0.0076982304 0.024214225 -0.014992237
000290 24 1a 69 3c 61 c7 10 3d cc 82 bc bc 53 ab 1a 3d
       0.014227424 0.035346393 -0.023011588 0.037761044
0002a0 ca ec e1 3c 80 98 40 3b 6e 4d a9 3c 46 d7 af 3c
       0.02757873 0.0029387772 0.020666804 0.021464955
0002b0 c7 89 bb bc c4 98 62 3c 1d 61 07 3d 73 32 4a bd
       -0.022892846 0.0138303675 0.0330516 -0.04936452
0002c0 e0 3d 7e bb d9 f3 0c 3d 8a b6 c3 bc ea 4c bc bc
       -0.0038794205 0.03441224 -0.023890752 -0.022985894
0002d0 25 ac 03 3d e5 4c 29 bd 6a 3a 84 bc 45 60 35 3d
       0.03214659 -0.041333098 -0.016141135 0.044281263
0002e0 ec 10 c6 bc 20 92 bd 3b 5a 59 02 bd dc 19 2f bd
       -0.02417799 0.0057852417 -0.031823494 -0.04274927
0002f0 9c 73 13 3c a3 11 e9 bc e0 7f 4c bc 87 f0 31 3d
       0.008999731 -0.028450793 -0.01248166 0.043442275
000300 61 b3 31 3d 9a 40 94 3c 83 d6 49 3d dc bf 19 3c
       0.04338396 0.01809721 0.04927684 0.009384122
000310 ed 94 04 3d 19 c9 49 bd 1c f5 7c 3c d5 02 21 bd
       0.03236859 -0.049264047 0.015439298 -0.03930934
000320 08 7c 2d bd 26 4b 34 bd 16 5b b0 3c 78 11 cd bc
       -0.042354614 -0.04401698 0.021527808 -0.025032744
000330 fe 6b 2b bd ed 04 e7 bc 6a 05 97 bc a9 a8 3f bd
       -0.041851036 -0.028200591 -0.018435199 -0.046791706
000340 34 c5 3f bc 77 53 18 3d b3 da 0f 3d e0 07 9d 3a
       -0.011704732 0.037188973 0.035120677 0.0011980496
000350 64 35 1c bd d2 ea aa 3c 68 8b c9 bb 62 6c 06 bd
       -0.038136855 0.020863924 -0.0061506517 -0.032818206
000360 b8 dd 18 bd 17 83 4d 3d 21 26 3f 3d cc 7b 06 3c
       -0.037320822 0.050173845 0.046667222 0.008208226
000370 fd 28 03 bd f7 fd 4b bd 80 c1 8b b9 40 aa ec ba
       -0.03202151 -0.049802747 -0.00026656315 -0.001805611
000380 5a 7f fe 3c 70 8f 12 bd d6 1e 8e 3c 65 4e 0e 3d
       0.031066585 -0.035781324 0.017348688 0.03474273
000390 12 f1 45 bd 02 fe fa 3c e7 a4 14 3d bc f3 01 bd
       -0.048325606 0.030638698 0.036290076 -0.031726584
0003a0 fa 07 d1 3c 34 13 51 bc e1 be 29 3d fe 30 82 3c
       0.025516499 -0.012760926 0.041441802 0.015892502
0003b0 87 36 3e 3d a0 3c d3 3a 86 3e 95 bc 83 59 2b 3d
       0.04643872 0.001611609 -0.01821829 0.041833412
0003c0 38 bb 87 bc 18 df 28 bd 20 7b 77 bc 84 88 4e 3c
       -0.016568765 -0.041228384 -0.015105039 0.01260579
0003d0 19 36 17 3d e6 83 89 3c 64 30 35 bd 15 e3 27 3d
       0.036916826 0.016786527 -0.044235602 0.040988047
0003e0 ac a2 e3 bc c0 5b 6b bb ee de 25 bd e0 91 76 bb
       -0.027787529 -0.0035912842 -0.040495805 -0.003762357
0003f0 c9 0a 23 3d a7 cb 1d 3d a8 76 8c bc 0c 7c 63 bc
       0.039805207 0.038524296 -0.017146423 -0.013884556

encoder.0.bias f4 [256]
000000 20 8f 8d bb ae b7 70 bc 3d c1 44 bd fa 84 39 bc
       -0.0043200403 -0.01469223 -0.04803585 -0.011323208
000010 54 ed 41 bd fd c8 35 bd 15 66 65 3c 71 c3 3c bd
       -0.047345474 -0.04438113 0.014001389 -0.046084825
000020 ba 56 16 3d 34 a9 e1 3c 29 bf 60 bc aa 56 2f 3c
       0.036703803 0.027546503 -0.013717451 0.010701815
000030 53 a9 ad 3c b9 99 fa 3b e8 fb 61 3a 36 07 b5 3b
       0.021198904 0.0076477197 0.0008620606 0.0055245413
000040 50 b0 d9 bc b9 d0 d9 bc db a5 11 bd e3 b4 e3 bc
       -0.02657333 -0.026588785 -0.035558563 -0.027796214
000050 21 f1 33 bd 6d 84 21 bd e3 34 f7 bc bd dd db 3c
       -0.04393113 -0.03943293 -0.030176586 0.026839131
000060 cc 0b 84 3c 92 d9 64 bb 6b b8 07 bd 86 4e fb 3c
       0.016118906 -0.003491972 -0.03313486 0.030677091
000070 6f 8b 43 bc 43 99 ee bc fe ac a5 3c df 65 b9 3c
       -0.011935099 -0.029125815 0.02022409 0.022631584
000080 79 7b dd 3c e0 ef c7 bc 3d 48 e5 3c 08 a8 35 bd
       0.027036415 -0.024406374 0.027988547 -0.0443497
000090 ba 4c 21 bd 37 b8 0f 3d 54 20 2c 3b 0c b3 dc 3c
       -0.039379813 0.03508779 0.0026264386 0.026940845
0000a0 4a 93 c3 3c ab 01 82 3b ba 7f 37 3d b2 78 da bb
       0.023873944 0.003967484 0.044799544 -0.00666722
0000b0 da 1a 91 3c 83 7c 46 bc fb d6 f5 bc ec c4 11 3b
       0.017713 -0.012114647 -0.030009737 0.0022242619
0000c0 49 56 0c 3d 50 f7 84 3c aa 7e fd 3c e1 4f 22 3d
       0.034261975 0.016231209 0.030944187 0.03962696
0000d0 4a 21 02 3d 7a 7c 0c 3d 7b ff 9b bc 58 e0 69 3c
       0.03177003 0.034298398 -0.019042721 0.014274679
0000e0 b4 43 0a 3c 10 aa 89 b8 4d 00 70 bc b6 f1 f6 ba
       0.008438993 -6.564346e-05 -0.014648509 -0.0018840346
0000f0 a9 74 0c 3c 9a 54 2b bc 9e 63 8f 3c 86 27 18 bc
       0.008572736 -0.010457182 0.017503556 -0.009286767
000100 c5 34 1c bd de 49 4e bd 70 57 2b 3d 4f 51 32 bd
       -0.038136262 -0.050363414 0.041831434 -0.043534573
000110 50 dd e1 3a f8 fb 99 3c 9e 6c ea bc 7b 5b 77 bc
       0.0017232094 0.018796906 -0.028616246 -0.015097494
000120 88 7e e1 3b 2d 3d 36 3c 47 8f 0c 3d 21 c3 4e 3d
       0.006881539 0.011122984 0.034316327 0.05047906
000130 20 7c 1c bc f7 83 b9 bc 80 53 37 3d 63 8a 78 bc
       -0.009551078 -0.022645934 0.044757366 -0.015169713
000140 29 5c 14 3c 48 bb 1c 3d 40 e5 57 ba 77 71 2b 3b
       0.009055176 0.038264543 -0.000823576 0.002616016
000150 ca bb dc bc 0c c5 43 bd 0f ef 35 bb b3 76 08 bc
       -0.026945014 -0.04779534 -0.0027760898 -0.008329081
000160 4d b3 49 3d 47 65 da bc ea ee 88 3a b3 b0 5f bc
       0.04924326 -0.02665962 0.0010447179 -0.013652968
000170 5a 75 38 bd 58 1c 45 3c 46 29 fc bc 36 a2 55 bc
       -0.04503379 0.012030683 -0.0307814 -0.013039162
000180 f8 4f bf 3c e2 a5 e4 bc 74 4a 30 bc 76 7e b1 bc
       0.023353562 -0.02791113 -0.0107599385 -0.021666747
000190 b0 70 a5 bc e1 3e 0e 3d f7 15 f3 bc bf 12 ac bc
       -0.020195335 0.034727935 -0.02967356 -0.021005033
0001a0 69 3d 04 3d 75 25 a9 3c 8b 78 21 bb 02 7c e5 bb
       0.032285128 0.020647744 -0.00246385 -0.0070033083
0001b0 1e d8 b7 bc 77 84 e4 bc 27 2e 91 bc 9e 73 32 bd
       -0.02244192 -0.027895195 -0.017722202 -0.043567292
0001c0 16 30 40 3d 5a 8e 18 3b d6 68 b5 bb da 48 eb 3c
       0.04692086 0.0023278208 -0.005536179 0.028721262
0001d0 e5 06 2a 3d 4b 78 05 3d ac ad 40 bc 94 38 4d bc
       0.04151048 0.032585423 -0.011760157 -0.012525696
0001e0 9b f5 ca 3c 8c c8 54 bd da be e7 bc 45 d5 fe 3c
       0.024775317 -0.05194907 -0.028289247 0.031107554
0001f0 4e 2a 29 3d a1 2b cf 3c c4 6e 5a bc bf 95 c4 bb
       0.04130011 0.025289359 -0.013332073 -0.0059992964
000200 35 08 cf 3c ad 7f 01 3c 98 f1 b4 bc b9 58 d7 ba
       0.025272468 0.007903975 -0.022087857 -0.001642964
000210 7e 66 33 3c a9 2e 75 3c a4 05 df 3c 45 94 ce bb
       0.010949729 0.014964738 0.02722437 -0.006304296
000220 e9 48 27 bc 39 e8 0c 3c 55 cf 26 bd e6 6b a9 bc
       -0.010210254 0.008600288 -0.04072507 -0.020681333
000230 a5 24 7f 3b f3 2e e9 bc f7 97 85 3c 14 ba 94 bc
       0.0038931754 -0.02846477 0.016307814 -0.018155135
000240 57 3b 17 3d 91 b2 fe 3c 17 cc c8 3c 8b 74 0c 3d
       0.036921825 0.031091006 0.02451138 0.03429083
000250 ae d9 31 3d d8 49 24 bd bd 4a 23 bd 9c da 54 3b
       0.043420486 -0.040109485 -0.039866198 0.0032478934
000260 ca 9a 40 3b 9a 70 0c bd c7 27 41 bd dc 12 44 3a
       0.0029389136 -0.034287073 -0.047157075 0.0007479617
000270 7b 79 b0 bb 10 4a 4c bd 61 de d1 3a 12 fb 49 bd
       -0.0053855754 -0.04987532 0.0016011709 -0.049311705
000280 fb 93 ac 3c 4f 6b 88 bc 5b 24 3c 3d 54 3c e2 bc
       0.021066656 -0.016652731 0.04593311 -0.027616657
000290 96 b0 1a 3c 61 0a 6e bb 2b 39 0e 3d 2c 52 28 bc
       0.009441515 -0.0036322104 0.03472249 -0.010273498
0002a0 4a 1c af bc 98 b4 a0 3c e7 5a 01 bd ba ae 91 bc
       -0.021375794 0.019617364 -0.03158083 -0.017783511
0002b0 62 e2 22 bd b1 bc 39 bd 90 54 7d bb 2e 65 02 bd
       -0.039766677 -0.045345966 -0.003865514 -0.031834774
0002c0 45 0e 3f bd 13 b2 36 bd fa 8d 03 3b bb fe 0f bd
       -0.046644468 -0.04460342 0.0020073638 -0.03515504
0002d0 28 6e 94 3c 7f 0f 43 3d 6f 2c 1d 3d 5b fe 30 bd
       0.018118933 0.0476222 0.038372453 -0.043211322
0002e0 8e 0a f1 bb 51 6f e3 bc 29 f0 27 3d 21 ab 36 bd
       -0.0073559945 -0.02776304 0.04100052 -0.044596795
0002f0 80 3c 9e bc 76 fe 98 bc ca 77 36 3d e0 71 ce bc
       -0.019315958 -0.018676024 0.044547834 -0.025200784
000300 02 6b 38 3d bc db ac bb 97 24 2d 3d d5 17 20 bd
       0.045023926 -0.005275218 0.042271223 -0.039085228
000310 94 d2 60 3c 70 c5 c8 3c 90 29 04 bd 40 da 3b bc
       0.013722081 0.024508208 -0.0322662 -0.011465609
000320 34 ae cc 3c 8a 1e 80 bc 59 e6 31 3d 50 8f 80 bc
       0.02498541 -0.015639562 0.043432567 -0.015693337
000330 27 63 b3 bc 1e e2 27 bd ac 27 32 3c 98 e8 27 bd
       -0.021897865 -0.040987127 0.010873716 -0.040993303
000340 64 bd 37 bd 28 24 40 3d 8f bb 2d 3d 7a 02 81 3c
       -0.04485835 0.04690948 0.042415198 0.015748251
000350 71 9f 31 3d 70 61 36 bc 63 e5 19 3d cd e5 81 3c
       0.043364946 -0.011131629 0.037572276 0.015856648
000360 55 19 45 3d ec 44 31 bd 6f 9b a5 bc 8d d2 f8 bc
       0.04811986 -0.04327862 -0.020215718 -0.030373836
000370 9d 67 50 3c 5c 68 64 3c 5e b2 10 3d 6b 4c 2b 3a
       0.012720016 0.013940897 0.035326354 0.00065345195
000380 7b 44 f5 3c 62 0a a1 bc 48 09 9a 3c 48 89 25 3d
       0.02993988 -0.019658271 0.018803254 0.040414125
000390 06 8f c3 3c 82 9a 92 bc 57 7d 8a 3c a7 d1 e8 bb
       0.02387191 -0.01789594 0.01690547 -0.0071050706
0003a0 c2 37 93 3c 90 c4 35 bd 32 7c 09 bd 4e c7 c0 ba
       0.017970923 -0.04437691 -0.033565708 -0.0014707835
0003b0 91 ec 42 bd 61 5d 72 bc 8e 56 14 3d cc 77 22 bd
       -0.04758889 -0.014792771 0.036215357 -0.03966503
0003c0 63 b9 3b bc 23 71 2a 3d f8 d6 5b 3c dc 00 a1 3c
       -0.011457774 0.0416118 0.013417952 0.01965373
0003d0 00 93 04 bd dc c7 35 bc c1 1a 0d 3d 44 42 96 3c
       -0.032366753 -0.0110950135 0.034449343 0.018342145
0003e0 e2 ce fd bc 61 9a 05 3c 72 40 29 bd be 50 36 3c
       -0.030982438 0.008154483 -0.041321225 0.011127649
0003f0 0a 27 28 bd 3e 1e 8d bc 4f dc 42 3d 23 40 77 bc
       -0.041052856 -0.017226335 0.047573384 -0.015090975

encoder.2.weight f4 [64, 256]
000000 21 10 1b 3c 7a da 4d 3d 9c 63 d5 3c 7f 40 24 bd
       0.009464295 0.050257184 0.026048474 -0.04010057
000010 40 f8 1c 3c ab d9 17 bd 47 87 3d 3d 64 42 45 bd
       0.009580672 -0.03707282 0.04627159 -0.04815902
000020 d0 e2 0e bc ec 26 f4 39 3c d0 22 bd e8 c4 39 3d
       -0.0087210685 0.00046568306 -0.03974937 0.0453538
000030 d0 f1 de bc 04 8a ce 3c 10 6e 36 bd 14 e2 57 3d
       -0.027214915 0.025212295 -0.044538558 0.05270584
000040 02 10 1c 3d 26 5a 79 bd c2 c0 b9 bc 2a c2 24 3d
       0.038101204 -0.060876988 -0.022674922 0.04022423
000050 78 f0 7e bd bc 0f 38 3c e8 73 79 bd 64 9d 7c 3d
       -0.062241048 0.01123422 -0.060901552 0.061673537
000060 12 d2 6f 3d 00 3c aa 3c 18 b1 64 bd 84 09 e4 3c
       0.058549948 0.020780563 -0.055832952 0.027836569
000070 33 6f 5f 3d 97 a6 4e 3d 86 70 c3 3b 8e 0b 57 bd
       0.054549407 0.05045184 0.0059643416 -0.052501254
000080 5b 6c bd 3c 64 a3 f4 bc 07 8f 2d 3d b8 4d 32 bc
       0.023122957 -0.029863067 0.04237273 -0.010882787
000090 18 e5 79 bd 47 08 23 3d d8 37 54 bc a6 96 66 3d
       -0.061009496 0.039802816 -0.012952767 0.056296013
0000a0 03 24 c6 bc f0 96 2c bd 39 81 8f bc 1e e9 50 bd
       -0.024187094 -0.042136133 -0.017517673 -0.051003568
0000b0 85 d1 5b bd a6 21 6f 3d e6 ad 6b bd 29 1f 94 bc
       -0.05366661 0.0583817 -0.05753889 -0.018081265
0000c0 7b 4f bc 3c f4 19 e1 bc 13 63 62 bd 30 db ae bc
       0.022987118 -0.027478196 -0.055270266 -0.021344751
0000d0 30 8e 24 bb 28 b9 4c 3c b8 b8 43 bd e3 50 2b 3d
       -0.0025109164 0.012495317 -0.047783583 0.041825186
0000e0 08 7d 5d 3c 02 45 ee 3b 6e 39 08 bd 7c e9 27 3d
       0.013518579 0.00727141 -0.033257894 0.040994152
0000f0 b7 da e1 bc 24 b8 f8 3c d6 e8 3f 3d 5d a3 40 3c
       -0.027570112 0.030361243 0.04685291 0.011757699
000100 f8 c5 53 3c 8c 82 6e bd d4 7b 42 bd 00 f9 cd 3c
       0.012925617 -0.058229968 -0.047481373 0.025143147
000110 dc 01 f9 bb 32 ba 25 3c 9d 9c 10 3d 85 ff 8e 3c
       -0.0075990986 0.010115193 0.035305608 0.017455826
000120 02 86 9e bb 87 50 30 bd e1 5a 1e 3c ab a3 74 bd
       -0.0048377523 -0.043045547 0.009665222 -0.0597264
000130 20 00 87 3b 46 2e a7 bc 55 37 1e 3d 74 6e 3a 3d
       0.004119888 -0.020407807 0.038626987 0.045515493
000140 50 83 de 3b 4e f3 47 bd ec bc 2a 3d ca 11 09 3d
       0.006790556 -0.048816018 0.041684076 0.03346423
000150 4c 3a 5b bd 76 01 85 bc f6 44 3b 3d 38 5e 4f bc
       -0.053522393 -0.016236048 0.045720063 -0.012656741
000160 94 bd c6 3c d5 83 39 bd 11 96 0d 3d e4 22 fc 3c
       0.02426032 -0.04529174 0.034566943 0.030778356
000170 c1 d1 b1 bc d6 66 66 bd d0 c2 95 3c 4e e2 5f 3d
       -0.021706464 -0.056250416 0.01828137 0.05465918
000180 1a 49 3c 3d 8e 00 78 bd 7c 39 69 bd 4c 0c ad bc
       0.045968153 -0.060547404 -0.056939587 -0.021124028
000190 ba 5b 58 bd 2b cb 76 bd 34 19 43 bd 27 87 45 3d
       -0.052821852 -0.06025235 -0.047631457 0.048224594
0001a0 0e d6 ce 3b 15 e6 32 bd ac 33 48 3d 9c 74 57 3d
       0.0063121384 -0.043676455 0.048877403 0.05260144
0001b0 28 29 c0 bc b0 75 55 bd d6 c8 25 bd bc 8d 9b 3c
       -0.023457125 -0.05211419 -0.040474735 0.018988483
0001c0 00 9a 4e 3d ef 66 04 bd cd 02 47 3c 5c e4 04 bd
       0.050439835 -0.032324728 0.012146664 -0.032444343
0001d0 08 1a ea bc 4e 58 73 bd e2 a9 56 bd a9 62 f6 3c
       -0.028576866 -0.059410386 -0.052408107 0.030076342
0001e0 22 88 08 3d df e3 d9 3c 58 47 21 3c e6 62 16 3b
       0.03333295 0.026597915 0.00984367 0.0022947132
0001f0 49 7f 1a 3d dd d9 24 bc 9c 79 de 3c 3b 8d 1a bd
       0.037719045 -0.010061708 0.027157597 -0.037732344
000200 0c 27 39 3d 0e 47 3e 3d 0a 18 4c 3d d2 f7 ba 3b
       0.045203254 0.04645448 0.049827613 0.005705812
000210 1c 9a b9 3b 6e d1 5f bd 17 c4 d7 bc 3b 5c 26 3c
       0.005664123 -0.054643087 -0.02633862 0.010153825
000220 8a 25 5a bd 0e ef 31 bd 99 a0 56 bd 8e 29 95 bb
       -0.053258456 -0.04344087 -0.05239925 -0.004552073
000230 95 d3 98 bc 00 bc 74 3b 69 67 9b bc be 13 31 3d
       -0.018655578 0.0037343502 -0.018970208 0.04323172
000240 99 01 61 bd 94 85 f1 3c 53 f2 ac bc 82 fc 28 bd
       -0.054933164 0.02948264 -0.021111643 -0.041256435
000250 f8 fa 02 bd fc be 57 3d a8 f9 2a 3d 43 b3 7c bd
       -0.031977624 0.05267237 0.041741997 -0.061694395
000260 64 e6 a9 3c 46 dd ca bc 22 62 83 3b bc 50 1d bd
       0.020739742 -0.024763715 0.004009501 -0.038407072
000270 dc 14 76 3d d2 2f 64 3d b8 0f eb 3c 30 95 67 3d
       0.060078487 0.055709668 0.028694019 0.05653876
000280 67 53 0e 3c 19 b5 35 bd 5c ae f2 bb f0 d7 5d 3c
       0.008686877 -0.04436216 -0.007406039 0.013540253
000290 e1 94 47 3c 16 e1 27 bd 43 1c 41 3d 0b dc 53 bc
       0.012181492 -0.040986143 0.047146093 -0.01293088
0002a0 00 1e 65 bd 78 9e 7d bc 80 85 32 3c 58 67 c1 3c
       -0.055936813 -0.015479676 0.010896087 0.023608848
0002b0 04 b0 97 3c 3c c6 77 3d b0 72 59 3d 60 82 4b 3c
       0.018516548 0.060491785 0.05308789 0.012421221
0002c0 55 c7 38 bd 3b 59 28 bb 10 06 d0 bc 88 51 5b 3d
       -0.045111973 -0.002568795 -0.025393516 0.05354455
0002d0 43 93 36 bd f4 d4 3f 3c 50 f5 6a 3c 2a 30 2b bd
       -0.044574033 0.011708487 0.014340714 -0.04179398
0002e0 c1 ac ca 3c 87 60 ad bc e9 97 07 bd bd b9 12 bd
       0.024740579 -0.021164192 -0.033103857 -0.035821665
0002f0 e6 53 38 3d 0c 39 2c bd 6c 7f 29 3d 5a 57 13 bd
       0.045001887 -0.04204659 0.041381285 -0.035971977
000300 08 4b 2e 3d 26 37 82 3c 31 1f f5 3b 3a 1c 5b bd
       0.042552024 0.015895437 0.007480525 -0.053493716
000310 59 38 26 bd 0f 0d 05 3d f0 e5 a2 bc 94 a6 47 bd
       -0.04058108 0.032483157 -0.019885033 -0.048742846
000320 58 da 55 3d 30 e1 7e 3d fc bf af bb 2b 5a 08 3c
       0.052210182 0.062226474 -0.0053634625 0.008322279
000330 d8 59 2b 3d 18 22 8d bb 2d a0 52 bd 89 37 81 3c
       0.04183373 -0.004307043 -0.051422287 0.015773552
000340 ec 8f f7 3c e6 da 56 bd 4a b4 16 bc c8 f8 dd 3c
       0.030219994 -0.05245485 -0.009198258 0.027096167
000350 b4 af 0d bc 71 2a 69 bd 99 ab 62 bd d1 82 e1 bc
       -0.008647848 -0.05692524 -0.05533943 -0.027528198
000360 74 de aa bc 2e 21 6f 3d 00 7a c3 3c 44 43 d5 3c
       -0.020858027 0.058381252 0.023861885 0.026033051
000370 9e 43 2b 3d 1b 5a 65 3d a2 49 7e bd 55 84 df bb
       0.04181253 0.055994134 -0.06208194 -0.006821195
000380 9a cb c5 3c e8 97 6e bd b3 80 88 bb f8 3c 5e 3d
       0.024144936 -0.058250338 -0.004165733 0.054257363
000390 16 50 48 3d a4 62 46 3d b9 a6 2b 3d 5f 50 af 3c
       0.0489045 0.048433915 0.041907046 0.021400629
0003a0 ae 6a 4b 3d b0 b7 20 bd 11 93 2b 3d 2e 30 6d bd
       0.049662285 -0.039237678 0.0418883 -0.057907276
0003b0 12 8a 0b bd 6d c1 35 3d 1c e5 51 bb 6c ce 3c bd
       -0.03406722 0.04437392 -0.003202743 -0.046095297
0003c0 8e 19 a9 bb f0 b7 e9 bc 80 42 4e bc fd a1 72 3d
       -0.005160517 -0.028530091 -0.012589097 0.059236515
0003d0 20 1e 5e bb 2a 67 38 bd ef d0 26 3d 48 fe 4f 3c
       -0.0033892468 -0.04502026 0.0407266 0.012694903
0003e0 21 4d 6a 3d ac 1b 59 3c 10 9c a9 3b 46 92 20 bd
       0.057202462 0.013251226 0.005176075 -0.039201997
0003f0 db bc 0c 3c 6f 8f 5f 3d d4 0b 4a bd 80 22 a5 bc
       0.0085899485 0.05458015 -0.049327686 -0.020158052

encoder.2.bias f4 [64]
000000 61 81 d0 bc a0 81 82 bc 2b 47 d3 bc 67 0b 57 bb
       -0.025452318 -0.01593095 -0.025790771 -0.0032813193
000010 f7 51 46 bc 2e f5 20 3d 66 c2 0d 3d 92 e6 b7 3a
       -0.012104503 0.03929632 0.03460922 0.0014030507
000020 73 78 b4 3b f8 62 5b bd 59 d9 c2 3c f5 19 c2 bb
       0.0055075227 -0.05356118 0.02378528 -0.0059235045
000030 4e 0b eb bc 7a 31 14 bb c2 20 4e bd c6 f5 fb bc
       -0.028691914 -0.0022612498 -0.05032421 -0.030756842
000040 f5 5b f5 bc eb 84 ef bc 5d de 39 3d cd 38 15 bd
       -0.029951075 -0.029238185 0.045378078 -0.036431123
000050 a9 2e 5a bd 14 a5 08 3d 11 b4 0b 3d e0 85 ba bc
       -0.053267155 0.033360556 0.03410727 -0.022768915
000060 a1 79 b9 3c bc f1 a2 bb f1 55 29 3d b7 d4 fa 3c
       0.022641005 -0.0049726646 0.041341726 0.030619008
000070 b8 e9 2e bc 8e a9 c6 3c 68 55 fd bc 43 b7 96 bb
       -0.01067584 0.024250772 -0.030924514 -0.004599483
000080 d0 d5 67 bd 11 6a a3 bb a0 16 87 bc 32 46 f7 3c
       -0.056600392 -0.0049870093 -0.01649028 0.030184839
000090 dc 9e 30 3d 8d b9 a6 3b 94 2d 59 3d 28 4a fc 3c
       0.04312025 0.0050880373 0.053021982 0.03079708
0000a0 2f ab 5b ba 57 32 30 3d 12 66 cc bb b2 52 e0 bc
       -0.00083796954 0.043016758 -0.0062377537 -0.027383182
0000b0 e4 f0 e8 3c 9c 0f bd bb 39 dd dd bc 27 57 3a 3d
       0.028435178 -0.005769683 -0.027083026 0.04549327
0000c0 84 79 6d bb 10 aa 24 bb c2 49 23 3d 54 fb 36 bd
       -0.003623576 -0.002512578 0.039865263 -0.04467328
0000d0 f6 d3 3b bd 9c 83 22 3d 52 f2 55 bd 36 01 1d bd
       -0.04585644 0.039676294 -0.052233048 -0.038331233
0000e0 b9 1d 72 bd 37 86 a6 bc f9 89 06 bd 20 8d 4c 3d
       -0.059110377 -0.02032767 -0.032846425 0.049939275
0000f0 47 6b 74 3d 16 e1 a0 3c fa 05 6b bd a8 c6 ad 3c
       0.05967262 0.01963858 -0.057378747 0.02121289

encoder.4.weight f4 [20, 64]
000000 52 9b e2 3c 38 dd d4 bd 45 cb 25 bd 96 0d 7b 3d
       0.027661953 -0.10393757 -0.040477056 0.061292253
000010 a1 26 f6 bd d1 da 33 bd e1 d6 8e 3c 1c d7 89 3d
       -0.12019087 -0.04390985 0.017436447 0.06730482
000020 be 4c 00 3e 93 c9 02 bd 3b f7 ba 3d 23 bd eb bd
       0.12529275 -0.031930517 0.09129187 -0.11510684
000030 d0 2a 85 bc fc eb 8a 3c 0c 53 84 3b 61 e3 ee 3c
       -0.016255766 0.01695823 0.0040382203 0.029161157
000040 fb 6c f7 bb 07 2c 4e bd af 29 72 3d ac 9f cb bb
       -0.0075508333 -0.050334956 0.059121784 -0.0062141027
000050 f7 f5 e1 3d 50 4c 7d 3d 07 ba c7 3d 6f bd 00 bd
       0.11033242 0.061840355 0.09752279 -0.031430658
000060 7f 05 c4 3d 33 79 ab 3c eb eb b2 bd 79 cd 99 3d
       0.09571361 0.020931816 -0.08736404 0.07509894
000070 b0 ae 14 bc 4d 37 e7 bd 44 8c dc 3d 8e e9 ec bd
       -0.009074852 -0.11289845 0.10768941 -0.115679845
000080 8d bc 9c 3d 60 9a 85 3d a0 1c 97 3c cf 57 d5 3c
       0.07653151 0.06523585 0.018446267 0.026042847
000090 89 d4 44 3d 39 9f 3c bb fe d8 e0 bc f8 9d 9a 3d
       0.04805425 -0.0028781428 -0.02744722 0.075496614
0000a0 dd 2a c2 bd 1f a2 c6 3d 2a 12 ab bc 04 46 e0 3d
       -0.09480832 0.09698891 -0.020882685 0.109508544
0000b0 2a 8e 33 3c 14 f8 05 3b 75 04 88 bd ef 9e 85 bd
       0.0109591875 0.0020442056 -0.06641475 -0.06524455
0000c0 44 5f e4 bd 70 90 12 3c 94 17 a6 bd c0 77 b6 bd
       -0.11150983 0.008945569 -0.08109966 -0.08909559
0000d0 79 05 e7 3d 8e 95 9b bd f8 ca ef bc 3e 74 a7 3c
       0.11280341 -0.07596885 -0.029271588 0.02044117
0000e0 f2 0e c0 3d 95 60 ee bd c9 2b f3 bd 4a 8e 88 3d
       0.093778506 -0.11639515 -0.11873586 0.066677645
0000f0 c3 d5 88 bd 30 02 b2 bb 28 34 c9 3d 48 e6 af bd
       -0.06681397 -0.0054323897 0.09824401 -0.085888445
000100 39 ab c7 3d ea a8 ec bd 61 77 7d 3d 02 90 a6 3d
       0.09749455 -0.11555655 0.061881427 0.08132936
000110 a0 f8 d2 bd 69 6d b4 3c 37 cc f9 3d 0a e5 94 3d
       -0.10301328 0.022024827 0.12197154 0.07270248
000120 8e 50 3e 3d 3e 3c a0 3d 39 f2 86 3d 50 cb b9 3d
       0.04646354 0.0782399 0.06589169 0.09071982
000130 d1 69 d6 bd de 52 52 bd 46 4d d2 bb 20 02 10 bd
       -0.10469402 -0.05134856 -0.006417903 -0.035158277
000140 15 7a 3c 3d f7 9f b7 3d 2d af 31 3d 0c 2c 9e 3d
       0.046014864 0.08966058 0.04337995 0.07723245
000150 0d 8c ff bd bc 93 1a bd c3 d0 93 3b 69 7b a5 bd
       -0.124778844 -0.037738547 0.0045109703 -0.08080179
000160 69 91 9a bd bd df 8e 3d c7 06 d5 3b af 44 9b 3d
       -0.07547266 0.069762684 0.006501052 0.0758146
000170 20 89 03 bd 9d bf db bd 30 18 47 bc 63 6c d7 3d
       -0.032113194 -0.10729907 -0.012151763 0.1051872
000180 f0 e3 b3 bc 38 00 c7 3d 18 86 9b bc c1 f3 e4 bc
       -0.021959275 0.097168386 -0.01898484 -0.027948262
000190 80 1e c4 bc 07 a6 e7 bc 86 ba 95 3d e9 5f 43 3d
       -0.023940325 -0.02827741 0.07310967 0.04769889
0001a0 e9 a3 53 bd 55 76 ed bd 2d c0 7d 3d aa d3 04 bd
       -0.05166999 -0.11594836 0.06195085 -0.03242842
0001b0 ed c1 af 3d 6a a2 25 3d 6a 7f 54 3d 79 ec 88 3d
       0.0858191 0.040438093 0.051879324 0.066857286
0001c0 76 b7 4a 3c 84 95 b6 3d ac ca c9 bd 08 14 99 3d
       0.012372842 0.089152366 -0.0985311 0.07474524
0001d0 83 5f 33 3d b2 b6 8b bd 68 95 0e 3d c4 99 b5 bd
       0.04379226 -0.06821956 0.034810454 -0.08867219
0001e0 60 4b e7 bd ef 84 2c 3d f1 ac 25 3d e9 18 c8 bd
       -0.112936735 0.042118963 0.040448133 -0.09770376
0001f0 24 ee ac bd f7 48 ef 3c 7f e1 77 bd 23 54 c4 3d
       -0.08443859 0.029209597 -0.060517784 0.0958636
000200 9b 54 ec bd 5c 50 55 3d 58 7c c3 bd 3b 26 c4 bd
       -0.11539575 0.05207859 -0.09545201 -0.095776044
000210 47 48 c4 3c 54 df cf 3d d9 fa f9 3d 44 d2 87 3d
       0.023960246 0.10150018 0.122060485 0.06631902
000220 9f 56 75 3d ec 7b d2 3d d9 30 22 3d 19 11 cf bd
       0.05989706 0.102775425 0.039597366 -0.10110683
000230 95 0f cc 3d c3 66 ac bd 54 0d 05 ba 97 0f 84 bd
       0.099639095 -0.08418038 -0.00050755334 -0.06448286
000240 43 10 75 bc d0 4e c5 3d 2b 7b 41 3d e7 8f 8c 3d
       -0.01495749 0.09634173 0.047236603 0.06863385
000250 10 a5 fb 3d f6 43 bb 3d 6d f4 c5 3d f0 38 91 3d
       0.122873425 0.09143822 0.09665761 0.07090938
000260 63 dd 1c bd a5 b7 af bd bc cc e8 bc e2 04 7f bc
       -0.03829707 -0.08579949 -0.028417937 -0.015565129
000270 14 d4 2e bd 1c 25 a6 3d 18 d4 76 3d 25 24 40 3d
       -0.042682722 0.08112547 0.060260862 0.04690947
000280 d7 a6 89 bb 19 1a 88 bd 64 3f 62 3d 7a 86 d0 3d
       -0.004200797 -0.06645603 0.055236235 0.10181899
000290 5f 1f 8f 3d 5d fe 5b bd dc 4c 94 bd fa ea fe bc
       0.069884054 -0.053709377 -0.07241222 -0.031117905
0002a0 40 9a 90 bd d6 f7 1c bd ef 39 e0 bd ed 6c d7 3d
       -0.07060671 -0.038322292 -0.1094855 0.10518823
0002b0 c5 f5 8f 3c 41 73 a3 3d 77 45 07 bd f2 7b 40 3d
       0.017573247 0.07980967 -0.03302523 0.046993203
0002c0 1e 1b f7 bd cf 70 d7 bb 2b 4a 6b bd 90 ff cd 3c
       -0.12065719 -0.006574727 -0.05744378 0.025146276
0002d0 6e a3 00 be 9d 5a 80 bd 04 db 09 3d 4e 1d 8a bd
       -0.12562343 -0.06267283 0.033656135 -0.06743871
0002e0 7e 7b bc ba 91 b3 89 bd 0e bf 9e bd e3 55 12 bd
       -0.0014380065 -0.06723703 -0.077512845 -0.03572644
0002f0 6b db f1 3d 8d c0 12 bd e3 97 8c bc 73 67 0a 3d
       0.11809429 -0.035828162 -0.017162269 0.033790063
000300 1e 7f f8 3c d0 bb 42 bc f8 2a 39 bc fc 01 90 bd
       0.030334052 -0.011885598 -0.011301748 -0.070316285
000310 bc 23 d4 bd 04 4d 76 bc d4 25 9a bb 15 c0 1e bd
       -0.10358378 -0.01503301 -0.0047042165 -0.038757402
000320 4a 3b ba bd aa 3c 3d 3d e2 b3 ab bd 8c 88 fe 3d
       -0.0909334 0.046200432 -0.08383919 0.12428388
000330 65 f8 09 3d 0d 7e 02 3d 1c 05 47 bd cc 72 89 bd
       0.033684153 0.031858493 -0.048588857 -0.06711349
000340 42 8a bb bd 94 83 b7 bd 27 c7 27 bd 2d 82 fa bd
       -0.0915723 -0.089606434 -0.04096141 -0.1223186
000350 41 5a 37 3c 26 71 d5 3d 34 98 f3 3d 93 28 b7 3d
       0.011190952 0.10421972 0.11894265 0.08943286
000360 2e 2e b6 3d fa e7 a3 bb 99 1e 97 bd 9a 39 f2 3c
       0.08895527 -0.005002019 -0.07378883 0.029568482
000370 08 0a c2 bc 62 94 f7 bd f0 11 35 bc 81 9a 69 3d
       -0.023686424 -0.12088849 -0.01105164 0.057032112
000380 d7 38 ea bd c2 47 98 bd f4 85 a5 3d 37 94 aa 3d
       -0.114366226 -0.07435562 0.0808219 0.08329051
000390 ca 2e bc 3d 94 e5 6d bd 60 7c 60 bd 38 aa a7 3d
       0.09188612 -0.05808027 -0.054806113 0.081867635
0003a0 be dc 1c 3d f3 11 a4 bd 4a ca d7 bd d9 ad 9e bd
       0.038296454 -0.08011236 -0.105366305 -0.077480026
0003b0 de 88 2d 3d 68 6a f9 3d 6b fe 08 bd 09 cc 10 3d
       0.042366855 0.121784985 -0.033445757 0.035350833
0003c0 f9 89 87 bc e6 5b f6 bc bb 8c 88 3d 4c 13 93 bd
       -0.016545283 -0.030073117 0.06667467 -0.07181415
0003d0 06 fc bc b9 d3 92 31 bc 5a f9 d9 bd 8c 32 f2 bd
       -0.00036045926 -0.010838228 -0.10643263 -0.11826047
0003e0 d7 2c cb 3d a3 0a 4a bd 98 94 f1 3d 31 75 75 bd
       0.09920662 -0.04932655 0.1179592 -0.059926216
0003f0 29 ef 1c 3b b0 9c 2e bd e4 8c b2 bd 3c 4a 0d bd
       0.0023946261 -0.042629898 -0.08718279 -0.034494624

encoder.4.bias f4 [20]
000000 f8 b0 c6 3d e0 6f c3 3d da d6 d0 3d b2 2f 9c bc
       0.09701723 0.09542823 0.1019723 -0.019065712
000010 e0 0d 02 3d 35 3e 9d 3d 32 47 81 3d 89 90 85 bd
       0.031751513 0.07677881 0.063124076 -0.065217085
000020 7e 52 32 bd fe ad 8a bd 06 51 e0 bc 64 c9 02 3c
       -0.043535702 -0.067714676 -0.027382385 0.007982586
000030 06 58 fd 3a a2 31 cc 3d 99 94 5b bd 5a e7 30 3d
       0.0019328601 0.09970404 -0.05360851 0.043189384
000040 8e 6d c8 bd 5c 05 f8 3d 81 e3 f0 bd b4 68 ef bc
       -0.09786521 0.12110397 -0.11762143 -0.029224731

decoder.0.weight f4 [64, 20]
000000 54 84 80 3d ac cf dc 3d 4d 23 3e be ac 0d ad 3d
       0.062752396 0.10781798 -0.18568154 0.08449873
000010 a4 62 ef 3d f8 00 39 3d c0 e7 50 be 27 73 63 be
       0.11688736 0.04516694 -0.20400906 -0.22211896
000020 86 34 3d 3e 8e b0 37 3e 50 2e b2 3d 80 b0 b6 ba
       0.18477067 0.17938444 0.0870024 -0.0013938099
000030 c4 d6 e7 3d 0a a9 3e 3e 94 bc 39 be a2 a8 52 3e
       0.1132026 0.18619171 -0.18138343 0.20572141
000040 90 9d 00 bd fa ba 59 be 18 85 e5 3d 14 2c 31 3e
       -0.031400263 -0.21262732 0.11207026 0.1730197
000050 5b bf e8 bd fe 3d cc bd f0 44 ed bc 82 33 41 3e
       -0.11364623 -0.099727616 -0.028963536 0.18867305
000060 3a 97 30 3e 49 af e9 bd 68 85 60 be f0 a9 b2 3d
       0.17245188 -0.11410386 -0.2192589 0.08723819
000070 b4 09 67 bd d0 37 0f 3e 10 b7 0d 3d d2 eb 4f 3e
       -0.056405738 0.13986135 0.03459841 0.20304802
000080 e0 0e 0a 3e c8 05 79 3d 9b 46 25 be 13 76 00 be
       0.13482237 0.06079653 -0.16140215 -0.12545042
000090 3c 2e 2e bd b2 13 a1 bd ba e4 4a 3e bd bd 4e be
       -0.04252456 -0.07865085 0.19813815 -0.20189567
0000a0 07 87 db 3d 70 35 28 be 7b 21 2e 3e 8e 39 3d 3e
       0.10719114 -0.16426635 0.1700496 0.18478987
0000b0 86 10 89 3c d4 3a 58 3e 4a b0 b6 bd a6 18 30 bd
       0.016731512 0.21116191 -0.08920343 -0.042992257
0000c0 63 40 f0 bc 3e 0f f2 3d 23 00 b1 bd b7 3c 45 be
       -0.029327577 0.118193135 -0.08642604 -0.19261442
0000d0 26 8b 6c 3c ce d2 f0 bd 7e d0 da bd ce fe 0b 3e
       0.014437472 -0.11758958 -0.10684298 0.13671419
0000e0 ba 9c 6f 3c 45 a3 7b 3b d1 a1 a1 bd 9c 20 5d be
       0.014624769 0.0038396877 -0.07892192 -0.2159447
0000f0 90 00 c4 3d 78 e2 42 3e 80 49 d8 ba 18 48 e3 3d
       0.0957042 0.19031703 -0.0016501397 0.11097735
000100 a6 97 07 be 56 c4 2a 3e a0 84 b4 bb 5c 2d 22 bd
       -0.13241443 0.16676459 -0.005508974 -0.03959404
000110 48 47 a3 bd 2d eb 45 be e8 5b ef 3d 60 ec b7 3c
       -0.0797258 -0.19327994 0.116874516 0.02245158
000120 c4 ba d1 3d f2 b3 21 3e 40 91 7f 3d a0 d2 be 3d
       0.10240701 0.157913 0.06239438 0.09317517
000130 c0 40 2e 3b bc e2 bc bd 50 8c 8b 3c a0 4b f8 3d
       0.0026588887 -0.09222934 0.01703468 0.12123799
000140 7e d9 0c bd b3 be 2b be 2a ae 50 bd 9d 84 00 3e
       -0.034387104 -0.16771965 -0.050947346 0.12550588
000150 ac 96 3e 3d fe c4 2c be 45 e0 18 be 45 d8 82 bb
       0.04653041 -0.16872022 -0.14929302 -0.0039930665
000160 55 4e 8c bd 87 67 b8 bd 74 84 eb bc 74 a3 56 be
       -0.06850878 -0.09004121 -0.028749682 -0.2096079
000170 a8 de 8f 3d 3d 0f 5c 3d ce de bd bd c8 e8 2c be
       0.0702489 0.05372547 -0.09271012 -0.16885674
000180 90 e0 4a be e0 6a 97 3d 10 ac 0c be 3f 5c d1 bd
       -0.19812226 0.07393432 -0.13737512 -0.10222673
000190 d3 3d ed bd e6 f6 a7 3b 8e d6 b3 bd c8 3e 0f bd
       -0.11584058 0.005125868 -0.087811574 -0.034971982
0001a0 60 a4 9f bb 7c 2d 10 be b3 6b ed bb 31 15 83 bd
       -0.00487189 -0.14079851 -0.0072455048 -0.06400526
0001b0 a9 08 38 be ea 56 54 be 71 c2 96 3d 28 fe 98 3d
       -0.17972054 -0.2073628 0.073613055 0.074703515
0001c0 ff 16 15 3e fd d0 eb bc f0 01 aa bd 4d 10 e0 bd
       0.14559554 -0.028786177 -0.08301151 -0.10940609
0001d0 64 2f cd 3d 27 6e 96 3d 03 a9 ca bd 80 b6 0d be
       0.10018805 0.07345229 -0.09895518 -0.1383915
0001e0 38 a1 0a 3e 91 3e 18 be 57 a5 ed bd 84 43 0c 3e
       0.13538063 -0.14867617 -0.11603802 0.1369763
0001f0 37 10 ce 3c 1c 5c bb 3a 88 25 35 3c 91 a8 b5 bd
       0.025154216 0.0014294419 0.011056311 -0.08870042
000200 51 ff 0d be 38 7b 3d be e2 c3 9b 3c 19 3f 30 3e
       -0.13866927 -0.18504035 0.019014303 0.1721157
000210 f7 d7 10 3e 86 c3 63 3e e9 ac 34 3e 4d a3 83 3d
       0.14144884 0.22242555 0.17644085 0.064276315
000220 02 80 e2 3d 4d 82 36 3e f9 8b 11 3d e8 aa 44 bd
       0.11059572 0.17823143 0.03553388 -0.04801455
000230 0f b3 08 be 5f e2 36 be 24 51 3d 3e d1 71 49 be
       -0.13349555 -0.17859791 0.18487984 -0.19672324
000240 e6 51 98 bd 26 2f be bd cb 90 06 be 1a 4e 54 be
       -0.07437496 -0.092863366 -0.13141172 -0.20732918
000250 f2 4b 60 3e f3 d3 53 be de c9 61 3e 32 4a a0 3d
       0.21903971 -0.20686321 0.22049662 0.07826652
000260 bb e7 7d 3d d0 8d c2 bd f4 a8 e1 bd e8 17 be 3d
       0.061988574 -0.09499705 -0.110185534 0.092819035
000270 f1 3b e5 bd ad 18 49 3e b1 b0 d3 bd 2f f5 8c 3a
       -0.111930735 0.1963832 -0.103364356 0.0010754223
000280 61 9a 51 be 27 f4 62 be 8c 56 6b 3b 7e 62 ee bd
       -0.20469047 -0.22163449 0.003590974 -0.1163988
000290 2a 5d 52 3e 8a 3e f6 bd 20 f2 43 3e 1c eb 52 be
       0.20543352 -0.12023647 0.19135332 -0.205975
0002a0 9b 71 d9 bd e3 c8 be 3d 3f b7 57 bd e8 21 0f bd
       -0.10617372 0.0931566 -0.05266499 -0.034944445
0002b0 78 43 4a be 19 62 45 3e a9 e5 ea bd ff 15 44 3e
       -0.197523 0.19275703 -0.114695854 0.19149016
0002c0 e3 28 51 3d 14 83 f0 bc a3 97 42 3e 91 14 07 bd
       0.051064383 -0.029359378 0.19003157 -0.032978598
0002d0 ca 0c 1c 3e 60 a2 31 be c8 f5 c7 3d 04 f3 f3 3d
       0.15239254 -0.17347097 0.09763676 0.11911586
0002e0 51 13 d8 bd 48 e8 60 3d f6 db a9 bd 12 f7 3e 3e
       -0.10550559 0.05490902 -0.08293907 0.18648937
0002f0 50 b9 0a be 56 0e 47 3e d0 18 25 be 74 1b 4a 3e
       -0.13547254 0.19439062 -0.16122746 0.19737035
000300 b0 b9 5d 3e 4c f7 b2 3d 70 db 35 be 30 8f bb bd
       0.21652865 0.087385744 -0.1775949 -0.0915817
000310 00 c3 15 3d 04 d9 65 bd 8f 01 f0 bd 02 2b 51 be
       0.03656292 -0.056115165 -0.11719047 -0.20426562
000320 18 bc 12 3d 3c 9a 99 3d bc 82 9d bd 12 9f 31 3e
       0.03582391 0.07500121 -0.07690951 0.17345837
000330 70 a7 ec 3c 6c 86 4e be c6 3f 32 3e 10 99 57 be
       0.028888434 -0.20168465 0.1740714 -0.21054482
000340 24 f1 d7 3d ac 86 09 3e 46 6e 2d be 74 84 ba 3d
       0.10544041 0.1343028 -0.16936597 0.09107295
000350 13 77 08 be 50 06 8d bd 5c e4 b9 3d 1c e2 d4 3d
       -0.13326673 -0.0688597 0.09076759 0.103946894
000360 a8 1b 09 be e0 ae 56 bc d8 97 52 3d 48 a8 18 3d
       -0.13389456 -0.013103217 0.05141434 0.03726986
000370 64 1d d6 bd b0 ba ad 3d d6 b0 54 be bc 82 3f 3e
       -0.104548246 0.084828734 -0.20770583 0.18702215
000380 69 73 4b be 24 5e 61 3e f8 97 5d 3d ec 3d 2e bd
       -0.19868244 0.22008568 0.054100007 -0.042539522
000390 31 5d 48 be f4 84 bc 3d d0 55 ba 3d 98 03 ba 3c
       -0.195668 0.09205046 0.09098399 0.022706792
0003a0 4c bb e4 bd 78 a2 d0 bd d0 0f 17 3c 00 98 a3 3d
       -0.111685365 -0.101872385 0.009220079 0.07987976
0003b0 a4 1f 54 bd 3a 5b 25 3e 10 87 1f 3d dc 00 3f bd
       -0.051787987 0.16148081 0.038947165 -0.04663168
0003c0 be f9 17 3e 54 58 48 bc 61 40 24 be c3 f4 3e be
       0.14841363 -0.01222809 -0.16040184 -0.18648057
0003d0 90 0d 1e 3d e4 b4 1a 3e 08 64 3c be 17 58 18 be
       0.038587153 0.15108067 -0.18397534 -0.14877354
0003e0 1d da 06 be 48 f3 57 3d 18 49 8a 3d 1f ab 4b 3c
       -0.13169141 0.052722245 0.06752223 0.012430935
0003f0 ad 39 46 3e ad a0 3e bd 2c 9a 64 3d 70 b7 4c 3e
       0.19357939 -0.04653995 0.055811092 0.19991851

decoder.0.bias f4 [64]
000000 48 2b 15 be f4 3d 57 be e8 b9 b9 3d 8c c1 3f be
       -0.14567292 -0.21019727 0.09068662 -0.18726176
000010 cf 54 4d 3e 99 97 19 3e 3e 76 55 3d 10 4b 98 3d
       0.20051883 0.14999236 0.052114718 0.07436192
000020 8f 9d 99 3d 12 26 e5 bd 81 df f2 bd 6d d9 1b be
       0.07500755 -0.11188902 -0.11859036 -0.1521966
000030 83 08 85 3d 76 a8 14 3e 41 cb 47 be 2c 36 3f 3e
       0.06495764 0.14517388 -0.19511129 0.18673009
000040 b4 94 29 3e 84 4a 15 3e 08 30 24 be 2a e2 e6 bd
       0.16560632 0.14579207 -0.16033947 -0.11273606
000050 f3 5f a7 3d a8 47 f6 bc 98 c3 c7 bc 8f 48 16 3d
       0.08172598 -0.030063465 -0.024385259 0.03669029
000060 97 05 0e 3e 98 7e 64 be c8 53 a6 bd 1b d5 24 3e
       0.1386932 -0.22313917 -0.08121449 0.16096918
000070 15 be 30 3e fb 65 12 be ba be 52 3e cb 2c f1 bd
       0.1726001 -0.14296715 0.20580569 -0.11776122
000080 39 11 cd 3d 0e eb 9f 3d 6c 3b 04 be 08 b4 20 be
       0.100130506 0.07808505 -0.12913293 -0.15693676
000090 c1 81 b1 3d 62 9f ca 3d a0 e5 86 bd c7 56 58 be
       0.08667327 0.09893681 -0.06586766 -0.21126853
0000a0 7c e4 36 3e 4d 64 28 be b7 26 ff 3d 82 ca 50 be
       0.17860597 -0.16444512 0.12458556 -0.2038975
0000b0 9c 75 33 3e a7 00 ff 3d c0 f1 98 3b ef f3 e8 bd
       0.17525333 0.12451296 0.0046674907 -0.11374652
0000c0 36 ee b1 bd 8c 0a f1 bd 0b 46 64 3e 15 e5 db bd
       -0.08688013 -0.1176959 0.22292344 -0.10737053
0000d0 81 a6 03 3e 3c 0a 0c bd 37 24 30 3e 7c 12 bb 3c
       0.12856485 -0.034189448 0.17201315 0.022835962
0000e0 34 98 c6 3b 90 97 06 3e e7 9e 83 3d 8c ca 77 3d
       0.0060606245 0.13143754 0.064267926 0.060495898
0000f0 53 68 33 be 0a db a9 bd 40 91 78 bc 35 1b c7 3c
       -0.17520265 -0.082937315 -0.015171349 0.024304966

decoder.2.weight f4 [256, 64]
000000 6c 39 98 bd 94 0c ca 3d ca 0c 86 3d 68 d9 f1 3c
       -0.07432827 0.0986568 0.06545408 0.029522613
000010 58 ab a7 3c 76 c5 9f bd c2 af ea bd bc c2 c9 bd
       0.020467445 -0.078013346 -0.114593044 -0.09851596
000020 20 41 cd 3c a4 2c ab 3d e8 19 0d 3d 28 19 22 3d
       0.025055468 0.08358124 0.034448534 0.039574772
000030 66 04 c6 bd 94 0d 28 3d 88 86 81 3c cc 3a 01 bd
       -0.09668808 0.041028574 0.01581122 -0.031550214
000040 18 9c fd 3c 34 dd 11 bd e8 f1 39 3d 8a df ca 3d
       0.03095822 -0.035611346 0.045396715 0.09905918
000050 c8 1b 66 bd 40 4d eb 3b 4c dd f7 bd 98 fa f7 bc
       -0.056178838 0.00718084 -0.12102756 -0.03027086
000060 96 84 89 bd 64 78 3d 3d 00 94 b0 39 a0 8c f2 bb
       -0.06714742 0.04625739 0.00033679605 -0.0074020177
000070 40 9b 99 bd fe aa b1 3d e4 ba f7 3d 3c 6d 62 bd
       -0.07500315 0.08675192 0.120961934 -0.055279955
000080 ce 51 d8 bd 10 a2 e9 3c 0a 08 ad bd 8c 7f 70 3d
       -0.10562478 0.02851966 -0.08448799 0.05871539
000090 6c ec da 3d f2 21 83 bd 8c 5d 79 bd d0 f1 27 bd
       0.10689625 -0.06402959 -0.06088023 -0.041002095
0000a0 d8 28 c5 bd 78 6f ba bc b0 ad ef bc ae 80 d4 bd
       -0.09626931 -0.02275823 -0.029257625 -0.10376106
0000b0 ee ef c7 bd e0 00 4e bd ec 3c 08 3d 50 90 d7 3d
       -0.0976256 -0.050293803 0.033261225 0.10525572
0000c0 08 3c f6 3d ae 9b 98 3d 44 6f 2f 3d a8 9e d8 bd
       0.12023169 0.074515685 0.04283072 -0.10577136
0000d0 64 52 bf bd f8 70 c0 3c 38 4c ff bc 7e d8 b0 3d
       -0.09341887 0.023491368 -0.031164274 0.086350426
0000e0 10 a8 26 3d 68 f9 92 3d 6c cc 4c bd e4 28 fb bd
       0.04068762 0.07176477 -0.04999964 -0.12263659
0000f0 26 69 f5 3d 20 c9 44 3c d0 8f 48 bc 8e d9 d3 bd
       0.11982946 0.012010843 -0.012241319 -0.1034423
000100 86 c2 a0 3d bc b8 39 bd c1 dc a5 bc 00 c0 99 b8
       0.078496024 -0.045342192 -0.020246865 -7.331371e-05
000110 f2 36 0d 3c cc 71 10 bd 4b db fa 3d 48 00 97 bd
       0.008619057 -0.035264775 0.12248858 -0.073731005
000120 fa c9 ed 3d 3c 8b 71 3d 34 12 80 3d ac c3 52 bd
       0.116107896 0.058970675 0.06253472 -0.05145614
000130 b5 40 fa 3d 17 d9 b3 bd 24 db be bd db 7a 4f 3d
       0.12219373 -0.08781641 -0.093191415 0.050654273
000140 a0 79 3d bd fe ef b3 3d 1c 21 e0 3d dc fa 0a 3d
       -0.04625857 0.08786009 0.10943815 0.033930644
000150 d6 f2 b2 3d f6 ea f4 3d fa 8f f7 3d da f0 f1 3d
       0.087377235 0.11958878 0.12088008 0.11813517
000160 f2 e4 88 bd c0 e3 b5 3c 7b ad d0 3d 54 04 78 3d
       -0.06684293 0.022203326 0.10189339 0.060551003
000170 fa 87 84 3c c4 6e 48 bd 67 42 c4 3c b8 c0 44 3d
       0.01617812 -0.04893376 0.023957444 0.048035353
000180 be a9 95 bd 48 6e f6 bd 90 34 b4 3d 60 f5 1b bc
       -0.073077664 -0.12032753 0.08799088 -0.009518951
000190 d2 7e 0e bd 23 e9 8d 3d 2c 4d 18 3d cc c6 f4 3d
       -0.034788914 0.06929233 0.03718297 0.1195198
0001a0 e2 2d 49 bd a0 33 62 bd bd 57 ab 3d 5c fa ae bd
       -0.049116023 -0.055225015 0.08366344 -0.08543846
0001b0 91 19 c3 3c 3d 6a 4f 3c 6c 57 0c bd 0a 3b 8c 3d
       0.023815902 0.0126596065 -0.03426306 0.06847198
0001c0 80 79 67 3c 10 e3 0f 3d 15 d1 8a 3c c2 fc d7 3d
       0.014128089 0.035128653 0.016945401 0.105462566
0001d0 c8 59 94 3d a4 48 8b bd af 20 e8 3d d4 de 04 bd
       0.07243687 -0.068009645 0.11334359 -0.032439068
0001e0 27 dd 97 bd e7 93 44 bd fe b1 ae 3d 6c 74 22 bd
       -0.07415228 -0.047992613 0.08530043 -0.03966181
0001f0 6c b9 be 3d 08 92 da 3c 50 d1 eb bd ef 98 df 3c
       0.0931271 0.026680961 -0.115145326 0.027294604
000200 e0 99 b4 3b de b5 a5 3d 82 12 e4 3d 9c 91 32 bd
       0.0055115074 0.08091329 0.111363426 -0.043595895
000210 44 ed 37 3d e6 50 92 bd 20 a7 24 bc 58 94 4e bd
       0.04490401 -0.071443364 -0.010049611 -0.05043444
000220 7a 6e d7 3d 3a 25 c6 3d 08 08 54 3d 40 7a e9 3d
       0.105191186 0.09675069 0.05176547 0.114002705
000230 c8 ac 6f 3d c2 36 a4 3d 8c 4e 4b bd f0 4d 31 3c
       0.058514386 0.08018257 -0.049635455 0.010821804
000240 2e d4 d9 bd 7e e4 8b 3d 40 f2 f8 3c 34 97 78 3d
       -0.10636173 0.06830691 0.030388951 0.060691074
000250 f0 67 45 3d 36 22 e3 bd 90 24 c5 bd de d1 d8 bd
       0.048194826 -0.110905096 -0.09626114 -0.10586904
000260 38 50 66 3d 3c 7b be 3d 00 d2 3b 3a 98 cc e5 bc
       0.056228846 0.09300849 0.00071647763 -0.02805166
000270 d6 44 87 3d 82 02 e1 bd c0 cd a7 bc d0 d2 c5 bc
       0.06604926 -0.109868065 -0.020483851 -0.024148375
000280 e0 7f 31 3c 3a 6b f3 3d 42 e4 cc 3d c0 97 52 bd
       0.01083371 0.11885686 0.10004474 -0.05141425
000290 04 62 d8 bd 40 d0 39 3d be e1 c2 bd 68 a5 40 3d
       -0.1056557 0.04536462 -0.09515713 0.047032744
0002a0 7c 14 05 bd 12 e6 e1 bd e4 a9 a9 bd 00 8e 16 3a
       -0.03249024 -0.110302106 -0.08284357 0.00057432055
0002b0 b0 54 28 3c 60 4f 76 3c cc 6f 52 bd 24 69 42 bd
       0.010274097 0.015033573 -0.05137615 -0.04746355
0002c0 b0 30 09 bd 44 05 43 3d 68 14 94 bd 98 30 96 3c
       -0.033493698 0.047612444 -0.07230455 0.018333718
0002d0 90 e8 71 3c 38 96 b9 bd 18 63 82 bc 2c 7c 7f bd
       0.01476492 -0.09061855 -0.015916392 -0.06237428
0002e0 d6 db f1 bd 34 26 86 3d e8 8f 39 3d e8 1a ac 3c
       -0.118095085 0.065502554 0.045303255 0.021008924
0002f0 60 3f d9 3b 10 9d be bc 90 39 07 3c e0 de ab 3d
       0.0066298693 -0.023268253 0.00825347 0.083921194
000300 00 df 13 3a dc aa 7d bd 7a f1 eb bd 90 58 51 3c
       0.00056408346 -0.061930522 -0.115206674 0.012777463
000310 c8 6f 52 3d 10 59 a6 bd b2 e9 b9 bd 64 90 c6 bd
       0.051376134 -0.08122456 -0.09077777 -0.09695509
000320 98 07 48 3d b6 d3 e5 3d 58 6a 35 bd b8 59 9e bd
       0.048835367 0.11222021 -0.04429087 -0.07731956
000330 30 98 65 bc 78 ce 45 bd c0 30 7c bd 60 c2 ac 3d
       -0.014013335 -0.048292607 -0.06156993 0.084355116
000340 e4 2a eb bd ac f1 a7 3d dc 88 2b 3d ac f2 e2 bd
       -0.1148279 0.08200392 0.041878566 -0.11081442
000350 d8 b7 4f bd 08 ef 96 3c 0c 6c 39 bd bc ee 58 bd
       -0.050712436 0.018424526 -0.045269057 -0.05296205
000360 32 fe f0 bd fc 3f 72 bd d8 4a 30 bd b2 84 e6 3d
       -0.11767234 -0.05914305 -0.043040127 0.11255778
000370 88 2c e2 3c e8 5b 35 3d d8 7b 7a bd c0 84 1e 3d
       0.027609125 0.0442771 -0.061153263 0.03870082
000380 c8 c5 81 bd f8 e2 43 bd b0 87 07 bd 60 ac b5 bc
       -0.06336552 -0.047823876 -0.033088386 -0.022176921
000390 90 e3 9f 3c 70 b1 c5 3d 6c 99 6d bd 64 b0 8a 3d
       0.01951769 0.09652984 -0.058007643 0.06771925
0003a0 04 42 f5 bd c0 f6 be bb ca 7a 99 3d 24 50 a4 3d
       -0.11975482 -0.0058277547 0.07494123 0.08023098
0003b0 64 91 cd bd 84 ef 8a bd 10 96 48 bc ae 78 ab 3d
       -0.10037497 -0.06783965 -0.012242809 0.08372627
0003c0 ca a9 db 3d 1e bb c0 bd b0 4a 00 bc 6c 78 be bd
       0.10725744 -0.0941069 -0.007830307 -0.093003124
0003d0 60 4e d9 3c 2a f7 8c bd ca ca b4 bd 06 99 ad bd
       0.02652663 -0.0688308 -0.088277414 -0.084764525
0003e0 74 78 30 3d 08 1b 87 3d 84 19 71 3d 50 1d aa bd
       0.043083623 0.06596953 0.058862224 -0.08306372
0003f0 88 9e e8 3d 80 1b 71 3b 24 bb 2c bd c0 b8 cd bd
       0.113583624 0.0036790073 -0.04217066 -0.10045004
