AutoEncoder/save_model/VAE/mice_train/VAE_adam_lr0001.pt (torch, 939791 bytes, 12 tensors)

encoder.0.weight f4 [256, 387]
0	0xbd7667c2	-0.060157545
1	0xbceeb971	-0.02914116
2	0x3b8984b8	0.0041967295
3	0xbd02cb82	-0.03193236
4	0x3d1d5c6a	0.03841821
5	0x3b5b5f11	0.0033473412
6	0xbc743237	-0.01490455
7	0xbd315ed2	-0.04330332
8	0x3c9d45c4	0.019198306
9	0xbd287b31	-0.04113311
10	0xbd1e07c0	-0.03858161
11	0x3d18acb5	0.03727408
12	0xbc9ba7e1	-0.01900095
13	0x3cc7f486	0.02440859
14	0xbd5d5d10	-0.05404383
15	0xbcfd8108	-0.030945316
16	0xbc73e9a0	-0.0148872435
17	0xbd3241c0	-0.043519735
18	0x3d145248	0.036211282
19	0xbc86a82b	-0.01643761
20	0x3d04231a	0.032260038
21	0xbcb7af6a	-0.022422511
22	0xbd529019	-0.051406953
23	0x3bb10735	0.0054024705
24	0x39d39334	0.0004035473
25	0x3d015438	0.031574458
26	0xbd124658	-0.035711616
27	0x3b1cff2c	0.0023955805
28	0x3cd0a178	0.02546762
29	0xbcce1cac	-0.025160156
30	0x3c2a2ba6	0.010386383
31	0xbca4a81c	-0.020099692
32	0x3cbe6872	0.023243163
33	0x3cd84c36	0.026403528
34	0xbc7796dd	-0.015111652
35	0xbccd587e	-0.02506661
36	0xbbb8ad18	-0.0056358688
37	0xbd813188	-0.063082755
38	0xbc5e9b38	-0.013586812
39	0x3c31e534	0.010857869
40	0x3c72e205	0.014824395
41	0x3ba82514	0.005131373
42	0x3d0dd2ba	0.034624793
43	0xbc1f1af4	-0.009711016
44	0x3cc8f681	0.024531605
45	0xbd071e8b	-0.032988112
46	0x3b2fef86	0.0026845648
47	0x3cdac0f9	0.026703345
48	0x3d1115de	0.035421245
49	0x3d0717b9	0.032981608
50	0xbc70393e	-0.014662085
51	0xbd1715b0	-0.036885917
52	0xbbd3c6e4	-0.0064629186
53	0x3d29d36d	0.041461397
54	0x3d17d3d0	0.037067235
55	0xbd129e04	-0.035795227
56	0x3d418276	0.047243558
57	0x3cbe182e	0.02320489
58	0xbcf233c7	-0.029565705
59	0xbbc4a5fb	-0.0060012317
60	0xbbfbf952	-0.0076896334
61	0xbd1effef	-0.038818296
62	0xbc408ea7	-0.011752761
63	0x3bbb848a	0.005722587
64	0xbd554198	-0.05206451
65	0x3c0e5a42	0.008688511
66	0xbd46b1b8	-0.04850933
67	0xbd349f24	-0.04409708
68	0x3c077687	0.008268005
69	0x3c4ef44a	0.012631485
70	0x3d095003	0.03352357
71	0x3d0ffc3d	0.035152663
72	0xbcbf52b2	-0.023354862
73	0xbd2dafea	-0.042404093
74	0x3ce697c5	0.028148541
75	0x3c144e93	0.009051937
76	0x3c4d480d	0.012529385
77	0xbbdfbfe9	-0.0068282974
78	0x3ceaf946	0.028683316
79	0x3c3e3ad5	0.011610706
80	0x3d039843	0.03212763
81	0xbc26dd22	-0.010184558
82	0x3a796e9a	0.0009515077
83	0x3bea839d	0.007156803
84	0x3bccd69d	0.00625117
85	0x3cf03685	0.029322872
86	0x3d2a9c54	0.041652992
87	0xbd2d3c54	-0.04229386
88	0x3b0b173a	0.002122356
89	0x3bbeccc9	0.005822752
90	0xbcd31b06	-0.025769722
91	0xbd4d219f	-0.05008089
92	0xbb060419	-0.002044922
93	0x3a436fa9	0.00074552983
94	0xbd15dced	-0.036587644
95	0xbd15de7f	-0.036589142
96	0x3cdf1f0e	0.027236488
97	0xbd42ca9e	-0.047556512
98	0x3d247450	0.040149987
99	0x3d376373	0.044772577
100	0x3d0288ff	0.03186893
101	0x3c0daed0	0.008647636
102	0xbc8756ea	-0.016520936
103	0xbb410670	-0.00294533
104	0x3ac13080	0.0014739186
105	0xbaf30e40	-0.0018543676
106	0x3cca85fa	0.024722088
107	0x3cdcfc76	0.026975852
108	0x3c7304dc	0.0148327015
109	0xbca0cee0	-0.019629896
110	0xbca935ee	-0.020655598
111	0xbc821780	-0.015880346
112	0xbd4aef5f	-0.04954469
113	0xbb1e87d0	-0.0024189837
114	0x3c0809d0	0.008303121
115	0xbcabd26c	-0.02097436
116	0x3c6a1ee4	0.014289591
117	0xbcecbeec	-0.028899632
118	0x3d1d7049	0.03843716
119	0x3d24e9a7	0.04026189
120	0x3cae404a	0.02127089
121	0xbd1f75f6	-0.038930856
122	0xb9eaba00	-0.0004477054
123	0xbcbc2ca4	-0.022970505
124	0xbd2f5b19	-0.042811487
125	0x3d047e4a	0.032347
126	0xbc2209ac	-0.009890001
127	0xbbd9bb57	-0.006644647
128	0xbc979fcf	-0.01850882
129	0x3b77d0c7	0.003781365
130	0x3d28a4c0	0.041172743
131	0x3c382af8	0.011240713
132	0xbc507544	-0.012723271
133	0x3d1956c9	0.03743628
134	0xbbe1b420	-0.0068879277
135	0xba411240	-0.0007365085
136	0xbd3e617b	-0.046479683
137	0x3ca30a16	0.01990227
138	0x3c67b0ac	0.014141243
139	0x3be3d098	0.0069523565
140	0x3d40c207	0.04706004
141	0xbcc01a35	-0.023449996
142	0x3d2bf539	0.04198191
143	0xbd39c511	-0.045353953
144	0x3c75adbc	0.014995035
145	0x3cd47762	0.025935832
146	0x3c5a1fa4	0.013313208
147	0xbced14e5	-0.028940627
148	0x3cce54be	0.025186893
149	0x3d35f715	0.04442509
150	0xbcf1bf15	-0.02951006
151	0x3d472609	0.048620258
152	0x3d285309	0.041094813
153	0xbb50ffd0	-0.0031890757
154	0xbd15f05e	-0.036606185
155	0x3d301c83	0.04299594
156	0x3cee7723	0.029109543
157	0xbc9952b7	-0.0187162
158	0xbd5e572f	-0.054282364
159	0xbd42d018	-0.047561735
160	0x3c2337b4	0.009962011
161	0xbca3c529	-0.019991474
162	0x3d2db473	0.042408418
163	0x3cbcc576	0.023043375
164	0xbd25859f	-0.040410634
165	0x3cbf4f32	0.023353193
166	0x3d365569	0.044515047
167	0x3bc869d8	0.006116133
168	0x3c95fb7a	0.01830839
169	0xbd3661b0	-0.044526756
170	0xbd00f249	-0.03148106
171	0x3c8f39a2	0.017483536
172	0x3cb728c2	0.022358302
173	0x3c82e65e	0.015978988
174	0x3caa717a	0.020806063
175	0xbd34f6e4	-0.044180766
176	0xbd47cfcb	-0.04878215
177	0xbd0199d3	-0.03164084
178	0x3b25ada0	0.002528049
179	0x3c8d167a	0.017222632
180	0x3d1f9b75	0.038966615
181	0x3c467a54	0.012114126
182	0x3d1d94f1	0.03847212
183	0x3d00cb3f	0.03144383
184	0x3d2ac361	0.041690234
185	0xbd1c805e	-0.038208358
186	0xbd39f5bf	-0.045400377
187	0xbc3ab268	-0.011395074
188	0x3c2f50e8	0.010700442
189	0x3cbd51bb	0.023110261
190	0x3a91714d	0.0011096388
191	0xbd436385	-0.04770233
192	0x3d012bb8	0.031535834
193	0xbb8c0b80	-0.004273832
194	0xbd10edf3	-0.035383176
195	0x3d3bdc93	0.045864653
196	0x3cfb2f16	0.0306621
197	0xbd41b326	-0.04728999
198	0x3ca89952	0.020580921
199	0xbc3dfbe8	-0.011595704
200	0xbd38e486	-0.045139812
201	0x3b7fe9e0	0.0039049312
202	0xbcbb4e8f	-0.022864608
203	0x3c11faf8	0.008909933
204	0xbb9ef9a8	-0.0048515387
205	0xbc2c4bec	-0.010516148
206	0xbc6c926c	-0.014439207
207	0xbd4e09ea	-0.050302424
208	0x3d2fd7d9	0.042930458
209	0x3b2751d0	0.0025530942
210	0x3b1a4d20	0.0023544505
211	0x3cb393ae	0.021921005
212	0xbcc1d90b	-0.023663064
213	0xbcb11355	-0.021615664
214	0x3c33db68	0.0109776035
215	0x3caf0b36	0.02136765
216	0xbc858124	-0.01629693
217	0x3c8fa61a	0.017535258
218	0xbd42823c	-0.047487482
219	0xbc99b9a8	-0.018765286
220	0x3d1fedcb	0.039045136
221	0x3d4323ef	0.04764169
222	0x3cb8fada	0.022580553
223	0xbc5dcf34	-0.013538171
224	0x3cdff8ea	0.027340371
225	0x3c8a438a	0.016877908
226	0x3b3e9a60	0.0029083714
227	0xbd32a90a	-0.04361824
228	0xbcfb9252	-0.03070942
229	0x3c3bc294	0.011459965
230	0xbc19aae8	-0.009379126
231	0x3d18a38f	0.037265357
232	0xbc738744	-0.014863793
233	0x3c44bd24	0.012007985
234	0x39fffe80	0.00048827007
235	0x3bf31da0	0.007419303
236	0xbbe8f860	-0.0071096867
237	0x3d2a5855	0.041588146
238	0xbcff0c0c	-0.031133674
239	0x398f6f00	0.00027357787
240	0x3d4078d3	0.046990227
241	0xbcae41c9	-0.021271603
242	0x3aaab400	0.0013023615
243	0xbd410c96	-0.047131144
244	0xbd40397f	-0.046929833
245	0xbd3db3e8	-0.04631415
246	0x3d405a03	0.046960842
247	0xbc248770	-0.010042056
248	0xbbab7ab0	-0.0052331313
249	0xbca7b74c	-0.020473145
250	0xbcc3d11a	-0.023903418
251	0x3c728b74	0.014803756
252	0xbcc3541e	-0.023843821
253	0x3cd14a62	0.025548164
254	0xbc5feaf8	-0.013666861
255	0xbbc29f50	-0.0059394017

encoder.0.bias f4 [256]
0	0xbd28eb55	-0.041240055
1	0x3b8e2230	0.0043375716
2	0x3bf07a64	0.007338809
3	0x3c6880b8	0.014190845
4	0xbbe258cc	-0.006907558
5	0xbb38d6a3	-0.0028204105
6	0x3d243d3a	0.040097453
7	0xbc0b1d52	-0.008490877
8	0x3d31a3f8	0.043369263
9	0x3d4f739c	0.050647363
10	0xbc5e2741	-0.013559164
11	0xbd14c73e	-0.036322825
12	0x3b0858c6	0.0020804866
13	0x3d021fa1	0.031768445
14	0xbd47f136	-0.04881402
15	0xbba8a6b2	-0.0051468248
16	0xbcb3d57d	-0.021952385
17	0xbd1a9c4c	-0.037746713
18	0x3c6d8a3b	0.014498289
19	0x3d821e87	0.06353479
20	0xbb9e7f47	-0.00483695
21	0xbd5ab5b7	-0.053395953
22	0x3cb02a45	0.02150453
23	0x3c91dad8	0.017804548
24	0xbc94b576	-0.018152934
25	0x3cc123ae	0.023576584
26	0x3cec728a	0.02886321
27	0xbcbe6d61	-0.023245515
28	0x3cc83400	0.024438858
29	0x3cf092fa	0.029366959
30	0xbce94949	-0.028477328
31	0xbd10b87e	-0.035332195
32	0xbce56255	-0.02800099
33	0x3c8fd7c7	0.017558945
34	0x3d2d0eb0	0.042250335
35	0xbd0667d5	-0.032813866
36	0xbd4e0e40	-0.05030656
37	0x3c3ed54d	0.011647535
38	0xbc3bdf21	-0.011466772
39	0x3d22c98c	0.03974299
40	0x3d04f891	0.032463614
41	0x3d125b56	0.035731636
42	0x3d35f9b5	0.044427592
43	0x3a5747f2	0.000821232
44	0xbd1c269b	-0.038122755
45	0x3c415e6e	0.011802299
46	0x3d3f2c0b	0.046672862
47	0xba8423f7	-0.0010081519
48	0xbd1885ec	-0.037237093
49	0x3c9b6c4c	0.018972538
50	0xbae97e2d	-0.0017814093
51	0xbd140cea	-0.03614513
52	0x3d09afea	0.03361503
53	0x3d48257d	0.048863877
54	0xbcd4fed8	-0.026000425
55	0x3ca1fe64	0.019774623
56	0xb9ff776f	-0.00048726375
57	0x3d0d2a94	0.034464434
58	0x3c5827a6	0.013193047
59	0x3b3c8334	0.0028764727
60	0x3c4a79ab	0.0123581095
61	0xbcc1dce5	-0.023664901
62	0xbbe4c33d	-0.006981282
63	0xbc2dacb6	-0.0106002595
64	0x3c66a38b	0.014077078
65	0x3c9e8e6c	0.019355021
66	0x3d3102b5	0.043215472
67	0x3ca9abd4	0.020711817
68	0x3d0b9619	0.03407869
69	0xbc8f8fa2	-0.017524544
70	0x3cdef7bd	0.02721774
71	0xbb3f0cf8	-0.0029152017
72	0xbad94759	-0.0016577049
73	0x3d3eee2b	0.046613853
74	0xbd5948eb	-0.053048056
75	0x3d164653	0.03668816
76	0xbd2f2a1a	-0.04276476
77	0x3bc3ff94	0.005981395
78	0xbd4b36cc	-0.049612805
79	0xbd042df6	-0.032270394
80	0xbca1f706	-0.01977111
81	0xbd0bfc7a	-0.034176327
82	0x3ce6e0c4	0.028183348
83	0x3c2398d3	0.009985167
84	0xbc441ee8	-0.011970259
85	0xbd2d57c1	-0.042320017
86	0xbd56a27a	-0.052401043
87	0xbd2538e2	-0.04033745
88	0xbb506195	-0.0031796445
89	0x3d03f635	0.032217223
90	0xbd45222c	-0.048128292
91	0x3ce8cf8b	0.028419277
92	0xbca4debf	-0.020125745
93	0x3d08a484	0.03336002
94	0xbba8f122	-0.0051556984
95	0xbbc38591	-0.00596685
96	0xba35504c	-0.0006916567
97	0xbd682cbe	-0.056683294
98	0x3d0681fe	0.032838814
99	0xbd21818e	-0.039430194
100	0x3d35304f	0.044235524
101	0xbcf39aaf	-0.029736845
102	0x3cfdc888	0.03097941
103	0x3d1087da	0.03528581
104	0x3d08b519	0.033375833
105	0x3cf29bff	0.0296154
106	0xbd69b71e	-0.0570594
107	0xbc40367f	-0.011731743
108	0x3d186f84	0.037215725
109	0xbc9528ca	-0.018207926
110	0x3d1046dd	0.03522383
111	0xbd1cd579	-0.03828952
112	0x3d381396	0.044940554
113	0x3d0533e3	0.032520186
114	0x3bf6c096	0.0075302823
115	0xbc4d1dd3	-0.012519318
116	0xbc584df1	-0.013202176
117	0x3d4b039e	0.049563996
118	0xbd1853b6	-0.037189208
119	0xbd5535e1	-0.052053336
120	0x3d147333	0.036242675
121	0x3c2ff5d8	0.010739766
122	0xbc3dfbcf	-0.01159568
123	0xbd22ec79	-0.0397763
124	0x3d25cd6a	0.0404791
125	0x3d1e92a4	0.038714066
126	0xbcf5ba8d	-0.02999618
127	0x3d52eea3	0.051497113
128	0xbc0793f7	-0.008275024
129	0x3c99a0dd	0.018753463
130	0x3c2f5c06	0.010703092
131	0xbd2b69e3	-0.04184903
132	0xbd4fcef3	-0.05073447
133	0xbcdf30e0	-0.027244985
134	0xbc827e2d	-0.015929306
135	0xbcbdbf0d	-0.02316239
136	0xbbbb3791	-0.005713411
137	0x3c9e7c69	0.019346433
138	0xbccd60f1	-0.02507064
139	0xbd080657	-0.03320917
140	0x3c1939d2	0.009352164
141	0x3d42ba1b	0.047540765
142	0xbd0fb064	-0.03508033
143	0x3ce98e52	0.028510246
144	0x3d00dc0c	0.031459853
145	0xbbb3046e	-0.0054631745
146	0xbcdb7d7f	-0.02679324
147	0x3d42eb41	0.047587637
148	0x3d752b5e	0.05985581
149	0x3c1d1bb0	0.009589121
150	0x3ceecc00	0.02915001
151	0x3d476d02	0.048687942
152	0x3c74453e	0.014909087
153	0xbc811c20	-0.015760481
154	0x3d7bec86	0.061504863
155	0xbcb28370	-0.02179119
156	0x3d1be6d0	0.038061917
157	0xbcf035e1	-0.029322566
158	0x3ce46642	0.027880792
159	0x3c213a49	0.009840556
160	0x393964eb	0.0001768057
161	0x3c327ac4	0.010893527
162	0x3cf38a52	0.029729042
163	0x3bad073b	0.005280403
164	0x3d2b3ec6	0.041807912
165	0xbc012255	-0.007881721
166	0x3c52b294	0.012859959
167	0x3b4c9250	0.0031215139
168	0xba0d17c0	-0.0005382262
169	0xbc9c8455	-0.01910607
170	0xbcdafc69	-0.026731687
171	0xbc0871dd	-0.008327928
172	0xba799316	-0.00095205137
173	0xb9607127	-0.00021404457
174	0x3a2bf179	0.00065591146
175	0x3d25bd12	0.040463515
176	0xbc8196d6	-0.015818994
177	0xbc197bd8	-0.009367906
178	0xbd1849bf	-0.037179705
179	0xbcf0fab4	-0.02941642
180	0x3c261849	0.010137626
181	0xbcd7c011	-0.026336702
182	0x3d113fcb	0.03546123
183	0x3ccfeb17	0.025380654
184	0x3d2c286e	0.042030744
185	0x3d0f8688	0.03504041
186	0x3cc24f48	0.023719445
187	0x3cf5c5a0	0.030001462
188	0xbd1dd005	-0.03852846
189	0x3cd43ab5	0.0259069
190	0xbd132533	-0.035924148
191	0x3d41e42c	0.047336742
192	0xbc0f4cfb	-0.008746381
193	0xbca04bd3	-0.019567406
194	0xbd5b5dc7	-0.05355623
195	0xbcf46d98	-0.029837415
196	0xbbf2fb80	-0.007415235
197	0xbd4b0ede	-0.049574725
198	0x3c27ea9c	0.010248806
199	0x3c242f95	0.01002111
200	0xbd3a17b5	-0.045432765
201	0x3cc488c0	0.023990989
202	0xbd0d1cbb	-0.034451228
203	0xbc20ccc6	-0.009814447
204	0xbd3af26a	-0.04564134
205	0xbc0d2a90	-0.008616105
206	0xbbe0d9ff	-0.0068619247
207	0xbcf485f4	-0.02984903
208	0x3d107939	0.035271857
209	0x3d411faa	0.047149338
210	0x3d1c8c24	0.038219586
211	0xbd4f3ccd	-0.050595094
212	0x3cf236e5	0.029567191
213	0x3bc76687	0.0060852203
214	0x3cf2fe62	0.029662315
215	0xbd07efe0	-0.033187747
216	0x3cb91087	0.022590889
217	0x3cb1d1dd	0.021706516
218	0xbced795d	-0.028988535
219	0xbd15fce4	-0.03661813
220	0xbd3c1308	-0.045916587
221	0xbb407498	-0.002936637
222	0xbd1f8b92	-0.038951464
223	0xbd416222	-0.047212727
224	0x3d0b5ccc	0.034024045
225	0x3c6b602b	0.01436619
226	0xbc32c09e	-0.010910181
227	0xbce1152c	-0.027475916
228	0xbc69298c	-0.014231097
229	0x3d335ae4	0.043787852
230	0xbc719f32	-0.014747428
231	0xbd29882c	-0.04138963
232	0x3be5c422	0.0070119062
233	0xbcbc113c	-0.022957437
234	0xbd31080c	-0.043220565
235	0x3c8a9a5d	0.01691931
236	0xbd309836	-0.04311391
237	0x3d77cab5	0.06049605
238	0x3ccfd37b	0.025369396
239	0x3cf1dcb9	0.029524194
240	0xbcdec86f	-0.027195184
241	0xbd2cef03	-0.042220127
242	0xbcbc9e21	-0.02302462
243	0x3c72ecb7	0.014826945
244	0xbc1bbd17	-0.009505532
245	0x3d028a49	0.03187016
246	0xbc8cc7bd	-0.017185086
247	0xbd64ce66	-0.0558609
248	0xbd0dad32	-0.034589
249	0x3c6a1f53	0.014289695
250	0x3cf1d947	0.029522551
251	0x3c85d283	0.016335731
252	0x3cca4409	0.024690645
253	0xbd6e15ad	-0.05812614
254	0xbd1b8578	-0.037969083
255	0xbc03050b	-0.007996808

encoder.2.weight f4 [64, 256]
0	0x3c6accb3	0.014331031
1	0xbd3dca8f	-0.046335753
2	0xbcca340d	-0.024683023
3	0xbd3008fb	-0.042977314
4	0xbc91ab28	-0.017781809
5	0xbd2d463c	-0.04230331
6	0xbd09cf62	-0.03364504
7	0xbcc51db4	-0.024062015
8	0x3c4f7e96	0.012664458
9	0x3b5f3abd	0.003406211
10	0x3bf0caac	0.007348379
11	0x3d3c86e4	0.04602708
12	0xbd40fc41	-0.047115568
13	0x3d8b2bb0	0.06795442
14	0x3c6578c3	0.014005843
15	0x3d50d648	0.050985605
16	0x3d2a9a1a	0.04165087
17	0x3d2d50e2	0.042313464
18	0x3cdfcb7d	0.02731871
19	0xbd08d93c	-0.033410296
20	0x3c8976a5	0.016780207
21	0x3d742195	0.05960234
22	0x3d25e938	0.040505618
23	0x3d32d07b	0.043655854
24	0xbbb1ae90	-0.005422421
25	0x3ca9fff3	0.020751929
26	0x3b45ed9a	0.0030201436
27	0xbcd90710	-0.026492625
28	0xbc3f2791	-0.011667148
29	0x3cbeff52	0.023315106
30	0x3d58b8e2	0.052910693
31	0x3d8448af	0.06459176
32	0xbd762c0a	-0.060100593
33	0x3d4702e9	0.04858676
34	0x3d95ff9c	0.07324144
35	0x3cdb1225	0.02674205
36	0xbc8516c2	-0.016246203
37	0xbc66f1b3	-0.0140957115
38	0x3c5a8263	0.013336751
39	0x3d0fe5ab	0.035131138
40	0x3d46076d	0.048346926
41	0xbcee0133	-0.029053306
42	0xbcb80d1a	-0.022467185
43	0xbd371332	-0.04469604
44	0xbd0b0d3e	-0.033948176
45	0x3c7e25a6	0.015511906
46	0x3d222258	0.039583534
47	0x3c5cfca5	0.0134879695
48	0x3bb5d918	0.005549561
49	0x3d0a122d	0.03370874
50	0xbb02998a	-0.0019927942
51	0x3ce874bc	0.028375976
52	0xbc9eb06b	-0.019371232
53	0x3d3db2c7	0.046313073
54	0x3d46d469	0.048542414
55	0x3d9cd8ea	0.076585606
56	0x3d4888c2	0.048958547
57	0xbd14b40b	-0.036304515
58	0xbc88c22d	-0.016694153
59	0x3d0f7f3e	0.035033457
60	0xbbed1223	-0.007234828
61	0xb92fd7ea	-0.00016769735
62	0xbd311225	-0.043230195
63	0x3c9bd96e	0.019024577
64	0xbd4f6fb2	-0.05064363
65	0x3d7a6a40	0.061136484
66	0x3d477bc3	0.048702013
67	0xbcdf026a	-0.02722283
68	0x3d1e2f5d	0.038619388
69	0xbcf7af5c	-0.030234985
70	0x3ce671ca	0.02813043
71	0xbd0b17f7	-0.0339584
72	0x3d799333	0.060931396
73	0x3c5492ec	0.012974482
74	0x3c0bb545	0.008527105
75	0x3d6a76c2	0.057242163
76	0xbc991a4e	-0.0186893
77	0x3b259f44	0.0025271932
78	0xbd13ee0c	-0.03611569
79	0xbb87caf0	-0.004144065
80	0x3cd05987	0.025433315
81	0x3d048365	0.03235187
82	0x3d0f461c	0.03497897
83	0x3c9377de	0.018001493
84	0x3cc120c8	0.023575202
85	0x3cdb1a69	0.026745992
86	0xbb8ef8b1	-0.0043631424
87	0xbc55a708	-0.013040312
88	0x3bef7594	0.0073077176
89	0x3d54a289	0.051912818
90	0xbd6c734a	-0.057727136
91	0xbd221b39	-0.039576743
92	0xbd189bc2	-0.037257917
93	0x3da03f06	0.07824521
94	0xbc2576f2	-0.01009916
95	0xbd3a9ad8	-0.045557827
96	0x3d4376c7	0.047720697
97	0x3ca72ac5	0.020406136
98	0xbb0bb7fd	-0.0021319382
99	0xbcb9050c	-0.022585414
100	0xbd514a23	-0.051096093
101	0xbb496923	-0.0030732832
102	0xbc97628c	-0.018479608
103	0xbc8890a7	-0.016670538
104	0x3c831e6b	0.016005715
105	0x3b82c877	0.0039911824
106	0xbd5a310d	-0.053269435
107	0x3d65b026	0.05607619
108	0xbcad2d90	-0.02113989
109	0xbbe1cbf0	-0.0068907663
110	0x3d2fac55	0.042888958
111	0xbd1ed7dc	-0.03878008
112	0x3cf8c1bd	0.03036582
113	0xbd4cb63f	-0.04997849
114	0x3d17f4c1	0.03709865
115	0xbcbc933d	-0.023019427
116	0x3da46eb6	0.08028929
117	0xbab70d37	-0.001396573
118	0x3d22eaa4	0.039774552
119	0x3d10e3d2	0.035373516
120	0xbcc36d80	-0.023855925
121	0xbcec6334	-0.028855897
122	0xbc543b2a	-0.012953559
123	0x3d023a74	0.031794026
124	0x3d9b387a	0.075791314
125	0x3b18592b	0.0023246508
126	0xbd097aca	-0.033564366
127	0x3d42fd3e	0.04760479
128	0x3d815364	0.063147336
129	0xbce2295d	-0.027607614
130	0xbd2d39fb	-0.042291623
131	0x3cc7d47a	0.024393309
132	0xbcc5998a	-0.024121065
133	0xbbb5f651	-0.005553045
134	0x3c5b922d	0.01340155
135	0x3c85b96f	0.016323773
136	0xbcd47493	-0.025934493
137	0x3d850e48	0.064968646
138	0x3c7519d6	0.014959773
139	0x3d68c60d	0.0568295
140	0xbd26d99c	-0.040734872
141	0xbb44069a	-0.0029911161
142	0x3cd3562a	0.025797922
143	0x3d9a4c45	0.075340785
144	0x3bd1e1b6	0.0064050807
145	0xbd424c71	-0.04743618
146	0x3d8e7f1c	0.06957838
147	0x3d11c6e3	0.035590064
148	0xbd1ca12f	-0.038239654
149	0xbb853f68	-0.0040663965
150	0x3c3cc828	0.01152233
151	0xbbd3fac8	-0.0064691044
152	0x3cd5a050	0.02607742
153	0xbce95dd4	-0.028487124
154	0x3d998c6d	0.07497487
155	0x3cc039ef	0.023465125
156	0xbd018e3d	-0.03162979
157	0x3d503b62	0.050837882
158	0x3cf3655e	0.029711422
159	0x3d832b84	0.06404784
160	0x3c799851	0.015234069
161	0x3d099e42	0.033598192
162	0x3d57bd32	0.052670665
163	0xbd3498f1	-0.04409117
164	0xbd01ea42	-0.031717546
165	0xbb9a47d2	-0.0047082687
166	0xbd2d7124	-0.042344227
167	0x3d3f2995	0.046670515
168	0xba54c680	-0.0008116737
169	0x3d438bdf	0.047740813
170	0xbd4db6d9	-0.050223205
171	0xbd4ae7bb	-0.0495374
172	0x3d290e66	0.041273497
173	0xbcc5b77c	-0.024135344
174	0x3d61d77f	0.055137154
175	0xbd007fcf	-0.031371888
176	0xbb3da2ce	-0.002893615
177	0x3d134b4c	0.03596048
178	0xbd088ff9	-0.033340428
179	0xbb0130e8	-0.0019712988
180	0xbd408288	-0.046999484
181	0xbd2ef6e9	-0.04271594
182	0x3cd41485	0.02588869
183	0x3d93e21c	0.07220861
184	0xbd2170d5	-0.039414246
185	0x3d1760eb	0.036957663
186	0x3b333ed0	0.0027350672
187	0x3a30eb27	0.00067489076
188	0x3d08efb9	0.033431742
189	0x3c37602d	0.011192364
190	0xbd154487	-0.036442306
191	0xbd65ba1e	-0.0560857
192	0xbcac6df7	-0.02104853
193	0x3d1ad14d	0.03779726
194	0x3cf00a9a	0.02930193
195	0x3ca84b58	0.02054374
196	0x3d1276ea	0.035757937
197	0xbcac8e09	-0.021063821
198	0xbcf3e600	-0.029772758
199	0xbd59b158	-0.053147644
200	0x3c8eb621	0.01742083
201	0x3d21ae40	0.03947282
202	0xbc9a976f	-0.018871037
203	0xbcb25c26	-0.021772455
204	0x3ccdc974	0.025120474
205	0xbc443b62	-0.011977049
206	0x3d786e65	0.060652155
207	0xbd1c45ef	-0.03815263
208	0xbb335ca8	-0.002736846
209	0x3cbf7cf5	0.023375014
210	0xbd20c272	-0.039247938
211	0x3809fd53	3.2899272e-05
212	0x3c96393b	0.018337836
213	0x3c0f35eb	0.008740882
214	0xbc7f2579	-0.015572899
215	0x3d31cb79	0.043406937
216	0xbd121b55	-0.035670597
217	0xbb7bcf19	-0.0038423
218	0x3d1ecf68	0.038772017
219	0x3cc7edc1	0.024405362
220	0x3b21afc4	0.0024671415
221	0x3d3306fa	0.043707825
222	0xbba9b1e2	-0.005178676
223	0x3d4ed00c	0.050491378
224	0x3d194d6e	0.03742736
225	0x3d715f7a	0.058928944
226	0xbc763289	-0.015026697
227	0xbcc2eca2	-0.023794476
228	0xbd1f5750	-0.038901627
229	0xbcf97ca2	-0.030454937
230	0x3c925986	0.017864954
231	0xbc62369c	-0.013806965
232	0x393ef5f7	0.00018211441
233	0x3cab5fc4	0.020919688
234	0xbad69082	-0.0016369971
235	0x3d6b86e4	0.05750169
236	0x3d55e8b4	0.052223876
237	0x3d8ba276	0.06818096
238	0xbb43aa65	-0.0029856202
239	0x3a299b75	0.0006470003
240	0x3d015778	0.031577557
241	0x3b771c4a	0.003770607
242	0x3d91bca5	0.07116059
243	0x3c38f859	0.011289679
244	0xbb986320	-0.0046504885
245	0x3d8a7346	0.06760268
246	0xbcd66d84	-0.026175268
247	0xbc802716	-0.015643638
248	0x3d331d3e	0.04372906
249	0x3d148a14	0.036264494
250	0xbbcda429	-0.006275673
251	0x3d58055b	0.052739482
252	0x3cbd2546	0.023089062
253	0x3d4edb5e	0.050502174
254	0xbb355865	-0.0027671095
255	0x3c0eb8b4	0.008711029

encoder.2.bias f4 [64]
0	0xbd245aad	-0.040125538
1	0x3d282bba	0.041057326
2	0xbbd0f4fc	-0.0063768607
3	0x3c0e8687	0.008699066
4	0xbcbfef9f	-0.02342969
5	0x3d5f9e8d	0.054594565
6	0x3aacfad7	0.0013197315
7	0x3d394928	0.045235783
8	0xbd429505	-0.047505397
9	0xbd557b96	-0.052119814
10	0x3bb8a20c	0.005634552
11	0xbd07a30a	-0.03311447
12	0x3c1fd7bc	0.009756025
13	0x3d4e740e	0.050403647
14	0x3c209240	0.009800494
15	0x3d164b31	0.036692802
16	0xbb235dd1	-0.0024927745
17	0x3b248027	0.0025100799
18	0x3ccb9018	0.024848983
19	0x3d2ddeeb	0.04244892
20	0xbc64262e	-0.013925118
21	0xbd6874d6	-0.05675205
22	0x3d2739c2	0.040826567
23	0xbd7f3f20	-0.06231606
24	0xbc09c41e	-0.008408574
25	0x3c878c25	0.016546318
26	0x3d68c768	0.056830794
27	0xbd51c53b	-0.051213484
28	0xbcb9d2ae	-0.022683468
29	0x3d294bd0	0.041332066
30	0xbc8dd177	-0.017311795
31	0x3d9007d3	0.07032742
32	0xbc32eb76	-0.010920396
33	0xbc9b5d9e	-0.018965539
34	0xbd0c8b75	-0.034312684
35	0xbcd06603	-0.025439268
36	0x3b4ee14a	0.0031567388
37	0xbc8a19e1	-0.016858043
38	0xbd5f0367	-0.054446604
39	0xbd0556e9	-0.032553587
40	0x3ccbf70f	0.02489808
41	0xbc70d07f	-0.014698147
42	0x3beae547	0.0071684453
43	0x3bf925d8	0.0076033883
44	0xbc4229c0	-0.011850774
45	0x3d4bcf64	0.04975833
46	0x3ce7998a	0.028271455
47	0x3cf8604b	0.030319354
48	0x3d6d5850	0.05794555
49	0x3d1c3af0	0.038142145
50	0x3d231ff9	0.039825413
51	0xbd291791	-0.04128224
52	0x3b95c6c9	0.004570816
53	0x3cfdac6c	0.030966006
54	0xbd14410d	-0.03619485
55	0xbd35c26d	-0.044374872
56	0x3ce39bc7	0.027784241
57	0x3c902080	0.017593622
58	0xbcf76eb1	-0.030204149
59	0x3d8ebf81	0.0697012
60	0x3d8de0bc	0.0692763
61	0xbd0f5c34	-0.03500004
62	0xbcb1437c	-0.021638624
63	0x3d150ca0	0.036388993

encoder.4.weight f4 [20, 64]
0	0xbd36a61d	-0.04459201
1	0xbd47c3e4	-0.0487708
2	0x3dc7fd7b	0.097651444
3	0xbba998ad	-0.005175671
4	0xbc8ddfd4	-0.017318644
5	0x3dc938e1	0.09825302
6	0xbd43ceff	-0.04780483
7	0xbdaad128	-0.08340675
8	0xbcac4cc6	-0.021032702
9	0xbdaeea91	-0.08540834
10	0x3de6668e	0.112500295
11	0xbd8146e8	-0.063123524
12	0x3c72aff9	0.014812463
13	0x3c585c5a	0.013205612
14	0xbd9a331f	-0.07529282
15	0x3ca6b6a2	0.020350758
16	0x3d947371	0.07248581
17	0x3cb5b447	0.02218069
18	0x3cc153f0	0.023599595
19	0xbcef1c25	-0.029188225
20	0xbcb3e5ec	-0.021960221
21	0xbd48c592	-0.049016543
22	0x3cb48443	0.022035724
23	0x3ddb1be6	0.106986806
24	0xbd6fe745	-0.058570165
25	0x3d79052b	0.060795944
26	0xbbf6f3bc	-0.0075363796
27	0x3d8c3dd4	0.0684773
28	0x3daf9692	0.08573641
29	0x3de87a2b	0.11351427
30	0xbc81f46b	-0.015863618
31	0xbd1c47cf	-0.03815442
32	0x3e027862	0.12741235
33	0xbd9fb35c	-0.07797882
34	0x3da58f65	0.08083991
35	0x3e076e76	0.13225731
36	0xbdc0b17a	-0.09408851
37	0x3d8fc7f0	0.07020557
38	0xbd11c8f5	-0.03559204
39	0x3936727c	0.00017399521
40	0xbd1c45bf	-0.038152453
41	0x3d9ae6e1	0.07563568
42	0xbd1c2b17	-0.03812703
43	0x3a714107	0.000920311
44	0xbd03b7b8	-0.03215763
45	0x3db7d4ac	0.08976111
46	0xbdf00e26	-0.117214486
47	0x3cdfa081	0.027298214
48	0x3d92311b	0.071382724
49	0xbd2f5181	-0.042802338
50	0x3c8ac5d2	0.016940031
51	0x3df849d3	0.12123456
52	0x3e04fbdd	0.12986703
53	0xbdb690d5	-0.08914343
54	0x3c928b0c	0.017888568
55	0xbd299fa9	-0.04141203
56	0x3cd31562	0.025767032
57	0x3de989d9	0.114032455
58	0x3d8b0392	0.0678779
59	0xbde8f8d0	-0.11375582
60	0x3d6c55a2	0.057698853
61	0x3d274032	0.040832706
62	0x3dc69528	0.09696418
63	0x3c788b61	0.015169949
64	0x3d946ee7	0.072477154
65	0xbd8399be	-0.06425808
66	0xbd5a043c	-0.053226694
67	0xbd31e570	-0.0434317
68	0xbc90d0d2	-0.017677698
69	0x3d9d8867	0.07692032
70	0xbd6d09bb	-0.057870608
71	0x3de1700e	0.11007701
72	0xbd126870	-0.03574413
73	0xbded7d6b	-0.11596187
74	0x3d4ff57b	0.050771218
75	0xbd61a62d	-0.05509012
76	0xbdba470a	-0.09095581
77	0x3dcab936	0.098986074
78	0x3c1850ea	0.009296635
79	0x3c26ffb5	0.010192801
80	0x3cc0a13e	0.023514386
81	0xbc711355	-0.014714082
82	0x3d9e5089	0.077302046
83	0xbdc307ca	-0.0952297
84	0x3d78ee44	0.060774103
85	0x3de3e351	0.111273415
86	0x3dd58389	0.10425479
87	0xbd0bdd2d	-0.034146477
88	0xbd2198ba	-0.039452292
89	0xbaf6a0c0	-0.0018816218
90	0x3da9f1b1	0.08298052
91	0xbd9ed5bb	-0.077556096
92	0xbdee0853	-0.116226815
93	0xbcba6130	-0.02275142
94	0xbdf19167	-0.117953114
95	0xbcfc88f9	-0.030827032
96	0x3dbc0996	0.09181516
97	0xbdb75734	-0.089521796
98	0x3dde3f3f	0.10851907
99	0xbd00bfdd	-0.031432975
100	0xbdbdbddb	-0.09264728
101	0x3dccb508	0.099954665
102	0x3cff2bac	0.031148754
103	0xbd5f322b	-0.054491203
104	0xbdf31833	-0.1186985
105	0x3e01177a	0.12606612
106	0xbd9146a8	-0.07093555
107	0x3dd02a67	0.101643376
108	0x3dbfd884	0.09367469
109	0xbdbaeb7d	-0.09126947
110	0x3de52849	0.111893244
111	0xbd198b2c	-0.03748624
112	0x3d80d8bc	0.06291339
113	0x3d17d0e9	0.037064467
114	0x3ca2361c	0.019801192
115	0xbd791f42	-0.060820825
116	0xbdf7da9d	-0.12102244
117	0x3da71d1a	0.081598476
118	0xbdedd592	-0.11613001
119	0xbc5af154	-0.013363201
120	0x3d7b5691	0.061361853
121	0xbda69742	-0.08134319
122	0xbdede5c2	-0.116160884
123	0xbd78e533	-0.060765456
124	0xbdea8003	-0.114501975
125	0xbd4979b7	-0.049188342
126	0xbcaa4bde	-0.02078813
127	0xbd02640a	-0.031833686
128	0x3dcb31ee	0.09921633
129	0xbdabbc45	-0.08385519
130	0xbdfaf9bf	-0.122546665
131	0xbdec44e6	-0.11536579
132	0x3d8aa11e	0.06769012
133	0x3d7f0658	0.06226191
134	0x3daa27b6	0.083083555
135	0xbd316765	-0.043311495
136	0xbd417b62	-0.047236808
137	0xbd854184	-0.06506637
138	0x3df6aabe	0.12044285
139	0x3d8e5011	0.06948865
140	0xbdf22553	-0.11823525
141	0xbb35b07d	-0.0027723603
142	0xbbe45089	-0.0069676084
143	0xbba438b1	-0.005011641
144	0x3dec66ab	0.1154302
145	0xbdfd5d90	-0.12371361
146	0xbe044f89	-0.12920965
147	0xbde724cd	-0.11286316
148	0xbd4c93ee	-0.049945764
149	0xbdbf8e2c	-0.09353289
150	0xbcf00696	-0.029300015
151	0x3db3766f	0.08762824
152	0xbd99ed97	-0.0751602
153	0xbd791ab6	-0.06081649
154	0x3d57abe9	0.05265418
155	0xbcbc2b51	-0.022969874
156	0x3d3c7f01	0.046019558
157	0xbd02133f	-0.031756636
158	0x3da6d812	0.08146681
159	0x3db04a06	0.08607869
160	0x3dcfd868	0.10148698
161	0xbc8776cf	-0.016536145
162	0xbd999452	-0.07498993
163	0x3d1d8234	0.03845425
164	0x3dd92dff	0.10604476
165	0x3d0c0f6c	0.034194395
166	0x3dc82cbc	0.097741574
167	0xbde30e67	-0.110867314
168	0xbd2e71c3	-0.04258896
169	0xbca1a282	-0.01973081
170	0x3dd234b2	0.10263957
171	0xbdbcda98	-0.09221381
172	0xbcd808e1	-0.026371421
173	0xbdf1ac98	-0.11800498
174	0xbd1154c7	-0.03548124
175	0xbd922caa	-0.07137425
176	0xbbdadca6	-0.0066791354
177	0x3dc0a995	0.09407345
178	0x3d5743b2	0.052554794
179	0xbd685d33	-0.056729507
180	0x3d9d8b6f	0.076926105
181	0x3d9ae1b1	0.075625785
182	0x3dc88903	0.09791758
183	0x3d9bf9dc	0.07616016
184	0xbd6485c9	-0.05579165
185	0xbd525e97	-0.05135974
186	0xbd7b1796	-0.06130179
187	0x3db47591	0.088114865
188	0x3c4dcdf6	0.012561312
189	0x3dc14a2a	0.09437974
190	0x3df84e35	0.12124292
191	0xbde5497c	-0.11195657
192	0x3c812c90	0.01576832
193	0x3da04a91	0.078267224
194	0xbd53c6ac	-0.05170314
195	0xbc8ae9e8	-0.016957238
196	0xbcbe5c6e	-0.023237433
197	0x3d551bec	0.05202858
198	0x3c5fff87	0.013671762
199	0xbc199451	-0.00937374
200	0x3d28d2e8	0.04121676
201	0x3caa9df0	0.020827264
202	0xbd9ddde3	-0.07708337
203	0xbd130c3f	-0.03590035
204	0xbe007af6	-0.12546906
205	0x3d5a4228	0.053285748
206	0x3de1c0b5	0.11023084
207	0x3dac7c4c	0.08422145
208	0x3d2b7e7a	0.041868664
209	0xbc8ca645	-0.017169127
210	0x3d97e054	0.07415834
211	0x3da7f17b	0.082003556
212	0xbdc0b369	-0.0940922
213	0xbcbe623b	-0.0232402
214	0xbe020807	-0.12698375
215	0xbce3d683	-0.027812248
216	0x3c1e5163	0.009662959
217	0x3d3de328	0.04635921
218	0x3d659e0e	0.056058936
219	0x3dc332ff	0.09531211
220	0x3ddc5b36	0.107595846
221	0x3cc2b09f	0.02376586
222	0xbd12496d	-0.035714556
223	0x3de1d242	0.110264316
224	0xbc908117	-0.01763968
225	0xbd892284	-0.066960365
226	0xbde979a8	-0.11400157
227	0x3d2748c1	0.040840868
228	0x3d3df3db	0.046375137
229	0x3c3237ad	0.010877532
230	0x3b867302	0.0041030655
231	0x3dab3519	0.08359737
232	0xbc87ad15	-0.016562024
233	0x3b71f910	0.0036922134
234	0x3d013666	0.03154602
235	0xbdb52d33	-0.08846512
236	0x3d351c66	0.044216536
237	0xbddd1a4f	-0.107960336
238	0xbc516aa6	-0.012781775
239	0x3dcd4b35	0.1002411
240	0x3d05109b	0.03248654
241	0xbc4703c1	-0.012146891
242	0xbdea3c14	-0.1143724
243	0xbd13f8ad	-0.036125828
244	0xbc0e5df4	-0.008689392
245	0xbdb27466	-0.087136075
246	0x3de1c8d4	0.11024633
247	0x3c102ad9	0.008799278
248	0xbd95cd00	-0.07314491
249	0x3d42d457	0.047565784
250	0xbd8f4e18	-0.06997317
251	0xbd53b22a	-0.051683582
252	0x3dd989a3	0.10621955
253	0xbcd98347	-0.026551856
254	0x3d2ef675	0.04271551
255	0xbd99a424	-0.075020105

encoder.4.bias f4 [20]
0	0x3dbd7b70	0.092520595
1	0xbde00cf6	-0.10939972
2	0xbd308605	-0.04309656
3	0x3caad57c	0.02085375
4	0x3e028902	0.12747577
5	0xbdfe000b	-0.12402352
6	0x3d39d21e	0.0453664
7	0x3da74e9e	0.08169292
8	0xbdbcc1f5	-0.09216682
9	0x3d058a16	0.032602392
10	0x3de60f5a	0.11233397
11	0x3de309e8	0.11085874
12	0xbd8150af	-0.06314217
13	0x3e13ea80	0.14444923
14	0x3d40b391	0.047046248
15	0xbd2d4429	-0.04230133
16	0xbd8eabd7	-0.069663696
17	0xbe0d18ab	-0.13778941
18	0xbce68bad	-0.028142774
19	0x3c617ea0	0.0137631

decoder.0.weight f4 [64, 10]
0	0xbe995f42	-0.29955488
1	0xbe8c70a9	-0.27429703
2	0x3e1f19ad	0.15537138
3	0x3e382bfb	0.17985527
4	0xbe6267b2	-0.22109869
5	0x3a541464	0.00080901966
6	0x3e6b7699	0.2299446
7	0x3e9effc1	0.310545
8	0xbd74b78a	-0.05974535
9	0x3eaa7cc8	0.33298326
10	0xbea1a840	-0.31573677
11	0xbe351433	-0.17683487
12	0x3ddc3a11	0.10753263
13	0xbda1fdda	-0.079097465
14	0x3e82f37d	0.25576392
15	0x3ea8a377	0.32937214
16	0xbd81fdbe	-0.063472256
17	0xbe283ab7	-0.16428648
18	0x3e8e2e99	0.27769926
19	0xbe9b3b1e	-0.3031854
20	0x3e88f136	0.2674653
21	0xbe294c4f	-0.16533016
22	0x3e991174	0.29896128
23	0xbd557691	-0.052115027
24	0xbdb7cc5d	-0.08974526
25	0x3e696116	0.22790942
26	0x3dfafa95	0.12254826
27	0xbe8045af	-0.25053164
28	0xbdf923a6	-0.121650025
29	0xbd4440c9	-0.047913346
30	0xbe685e58	-0.2269224
31	0xbe153501	-0.14571
32	0xbe5cbced	-0.21556444
33	0x3c84589b	0.016155532
34	0x3e5e50fb	0.21710579
35	0xbdf36936	-0.11885302
36	0xbe36b338	-0.17841804
37	0x3e5b7819	0.21432532
38	0xbb9e530d	-0.004831678
39	0xbd92fc9b	-0.07177087
40	0x3deae07b	0.114685975
41	0xbe7d8559	-0.247579
42	0x3da16ab7	0.07881682
43	0xbe2c2578	-0.16811168
44	0x3e9536fa	0.29143506
45	0x3d3a5e04	0.045499817
46	0x3e721e8c	0.23644465
47	0x3e5fd939	0.21860208
48	0x3e95575d	0.29168215
49	0x3e9e786d	0.30951253
50	0x3e9209ef	0.28523204
51	0x3e488f82	0.19585994
52	0x3d09dbfd	0.033657063
53	0x3e297e96	0.16552195
54	0xbe9510eb	-0.2911447
55	0xbe9e8906	-0.30963916
56	0x3e256072	0.16150072
57	0x3e57bd53	0.21068315
58	0xbc12351b	-0.008923794
59	0x3e939c3d	0.28830138
60	0xbe8330e4	-0.25623238
61	0xbe6995ac	-0.22811002
62	0xbe9fcac6	-0.3120939
63	0x3d4ec659	0.050482128
64	0xbe297e99	-0.165522
65	0xbd0063b5	-0.031345088
66	0xbe90e5e8	-0.28300405
67	0xbdea296e	-0.11433683
68	0xbe955c08	-0.29171777
69	0xbe1f974f	-0.15585063
70	0x3b70939d	0.0036709078
71	0xbe98e52a	-0.29862338
72	0xbe590777	-0.21194254
73	0xbe9d1b48	-0.30684876
74	0x3e4a119f	0.19733284
75	0x3e618dee	0.22026798
76	0xbd7c915f	-0.061662074
77	0x3dfaa4aa	0.122384384
78	0xbe9ee19d	-0.31031504
79	0xbe8c9307	-0.27455923
80	0x3d0f4788	0.034980327
81	0xbe811dd7	-0.25218078
82	0xbe32818d	-0.17432232
83	0xbe712245	-0.23548229
84	0x3d430f87	0.04762223
85	0x3e8e5265	0.27797237
86	0x3ceab24d	0.028649474
87	0xbe6a0ccc	-0.22856444
88	0xbd39f5b1	-0.045400325
89	0x3c889f5e	0.016677555
90	0xbd0efe6a	-0.034910597
91	0x3c7bd516	0.015370628
92	0xbe51bfa1	-0.20483257
93	0xbdf99625	-0.12186841
94	0xbe696067	-0.22790681
95	0x3c2b71fd	0.010464189
96	0x3e83077b	0.25591645
97	0xbd9ee311	-0.07758153
98	0xbe878265	-0.2646667
99	0xbe9c2416	-0.3049628
100	0xbb93325a	-0.0044920864
101	0xbe041e67	-0.12902223
102	0xbe8528f9	-0.26007822
103	0xbd4a46ef	-0.049384054
104	0xbe38f13b	-0.18060772
105	0x3d824c4b	0.06362208
106	0x3e9446a4	0.28960145
107	0x3d83411f	0.06408905
108	0xbe66af40	-0.2252779
109	0xbd393f84	-0.04522659
110	0x3e0553ba	0.1302022
111	0xbe852111	-0.2600179
112	0x3c9634b8	0.018335685
113	0xbea0a21e	-0.31373686
114	0xbd90b205	-0.070652045
115	0x3e18a4f1	0.1490667
116	0xbdcf6436	-0.101265356
117	0x3e7bca95	0.24588998
118	0xbe16c5b0	-0.1472385
119	0x3c7d28e2	0.015451642
120	0xbd3cf5fb	-0.046133023
121	0xbdcc61be	-0.0997958
122	0xbd9cd4c9	-0.07657773
123	0xbe8f08ef	-0.27936503
124	0xbd70ca61	-0.058786754
125	0x3e80dd94	0.2516905
126	0x3e9e127c	0.30873477
127	0x3ca4394d	0.020046854
128	0xbdd931f1	-0.10605229
129	0x3ea1f022	0.3162852
130	0xbd67c8f1	-0.056588117
131	0xbe219067	-0.15777741
132	0xbe57e16a	-0.21082082
133	0x3e893280	0.2679634
134	0x3ea3601c	0.31909263
135	0x3e96c5c2	0.29447752
136	0xbbd4181e	-0.0064726016
137	0x3dca5eee	0.09881388
138	0xbdfdb195	-0.12387387
139	0x3e419c48	0.18907273
140	0xbdd8d22a	-0.105869606
141	0xbe67c03d	-0.22631927
142	0xbe81b7e8	-0.25335622
143	0xbe0acec5	-0.13555439
144	0x3e6ffb93	0.23435812
145	0xbe88a0a0	-0.26685047
146	0x3d8911d0	0.066928506
147	0xbe968048	-0.29394746
148	0xbe59797f	-0.21237753
149	0x3e98dca3	0.29855832
150	0xbe9e1bbb	-0.30880532
151	0xbea6608d	-0.32495537
152	0x3d4765a9	0.048680935
153	0x3e9ac868	0.30231023
154	0xbe10e913	-0.14151411
155	0xbd4949d6	-0.04914268
156	0x3d9596ec	0.07304177
157	0xbe37d36d	-0.17951746
158	0xbe815e05	-0.25267044
159	0x3e755343	0.23957543
160	0x3d8e1c4e	0.069389924
161	0x3e47e811	0.1952212
162	0x3da1ddbd	0.07903621
163	0xbdd13f47	-0.10217147
164	0xbcb3055a	-0.021853138
165	0x3e0aea0a	0.13565841
166	0x3d10b300	0.035326958
167	0x3eaa84aa	0.3330434
168	0x3ddeb4cf	0.1087433
169	0xbe2842cf	-0.16431735
170	0xbe4d850b	-0.20070283
171	0x3e0a6eb7	0.13518797
172	0x3e74d164	0.23908001
173	0xbe4db1c3	-0.20087342
174	0x3d22dc93	0.039761137
175	0x3e0844c0	0.13307476
176	0xbc748779	-0.014924877
177	0x3e915a04	0.2838899
178	0x3e3e2c36	0.18571553
179	0xbe838b5b	-0.25692257
180	0xbd3f80df	-0.04675376
181	0xbddfac12	-0.10921492
182	0x3e5e87ae	0.21731445
183	0xbe89ffb7	-0.26952907
184	0x3e942158	0.2893169
185	0x3e1102ae	0.14161178
186	0xbe0fb7b2	-0.14034918
187	0x3ddd047e	0.107918724
188	0xbe84ba2a	-0.25923282
189	0x3d2858f6	0.041100465
190	0x3e502494	0.20326453
191	0xbc87744d	-0.016534949
192	0x3db1aa34	0.08675042
193	0xbc4eb79c	-0.012617018
194	0xbe0f0084	-0.1396504
195	0x3ea454bc	0.32095897
196	0xbdbaef42	-0.09127666
197	0x3e194636	0.1496819
198	0x3d5da0ee	0.054108553
199	0xbd89ded0	-0.06731951
200	0x3e9b6596	0.3035094
201	0x3a8c120a	0.0010686528
202	0x3d665175	0.056230027
203	0xbe411042	-0.18853858
204	0x3c489b43	0.0122440485
205	0x3dda4cb6	0.10659163
206	0x3c1f098b	0.009706865
207	0xbb789433	-0.003793013
208	0x3dac1eea	0.08404334
209	0xbb13ff3f	-0.0022582558
210	0x3e946b43	0.28988084
211	0xbe8186e4	-0.25298226
212	0xbe458ec9	-0.1929275
213	0x3e94e20c	0.2907871
214	0xbd6c0e32	-0.057630725
215	0x3dfb2941	0.12263728
216	0x3e503d5b	0.20335905
217	0xbd6fd93e	-0.058556788
218	0x3ddb11de	0.10696767
219	0xbe82a342	-0.2551518
220	0x3e55d742	0.20882896
221	0xbe6e48bd	-0.23269935
222	0x3e8196cf	0.2531037
223	0xbe5a2668	-0.21303713
224	0x3e0a18b1	0.13485982
225	0x3e162180	0.14661217
226	0x3e7a4332	0.24439695
227	0x3e44796b	0.19186942
228	0xbdf483f0	-0.119392276
229	0xbe774b7a	-0.24149886
230	0x3d847406	0.06467442
231	0xbd4a79a4	-0.04943241
232	0x3e858e28	0.2608502
233	0x3e89f3a9	0.2694371
234	0x3e81e89e	0.25372785
235	0x3da1d956	0.07902782
236	0xbe8c90f0	-0.2745433
237	0xbe8400b2	-0.2578178
238	0xbe266477	-0.16249262
239	0xbe95ef51	-0.29284146
240	0x3e4a5251	0.19757964
241	0xbe976858	-0.29571795
242	0x3e4554b9	0.192706
243	0xbd1948a2	-0.037422784
244	0xbe81a526	-0.2532131
245	0x3eac678a	0.33672744
246	0x3ea1074f	0.3145089
247	0x3e0aa601	0.13539888
248	0xbe1589c7	-0.14603339
249	0x3e08c10a	0.13354889
250	0x3e52f8c1	0.20602705
251	0x3e4fa20a	0.20276657
252	0xbe02e2d8	-0.12781847
253	0x3ddc77a1	0.10765005
254	0xbde5dd5e	-0.11223863
255	0x3e6600b4	0.22461206

decoder.0.bias f4 [64]
0	0xbca8a1a0	-0.020584881
1	0x3d067ea2	0.03283561
2	0xbba77b8c	-0.0051111635
3	0x3d4e7ca9	0.050411854
4	0xbdeffef0	-0.11718547
5	0x3e91fdba	0.2851389
6	0x3e8203c3	0.25393495
7	0x3ea9ec5f	0.3318815
8	0x3e17cd19	0.14824332
9	0x3d1530c4	0.03642346
10	0x3e6fe96c	0.23428887
11	0xbbd50343	-0.006500633
12	0x3cdc1f53	0.026870405
13	0x3e124014	0.14282256
14	0x3e210874	0.15725881
15	0x3e27c4fe	0.1638374
16	0x3e580ae5	0.21097906
17	0x3d9232cb	0.07138594
18	0x3e97bb74	0.29635203
19	0x3e771851	0.2413037
20	0x3ead7b52	0.33883148
21	0x3e4e2638	0.20131767
22	0x3e9a6843	0.3015767
23	0xbe8ef6c4	-0.27922642
24	0xbc9f6695	-0.019458095
25	0xbdbd78f5	-0.09251586
26	0xbc80996f	-0.015698163
27	0xb9e7a942	-0.0004418586
28	0xbe23bd8c	-0.15990275
29	0x3e5ddb94	0.21665794
30	0x3ea5f29f	0.32411668
31	0x3e87e997	0.26545402
32	0x3e965bde	0.29366964
33	0x3e0261c2	0.12732604
34	0xbe474768	-0.19460833
35	0xbe28683f	-0.16446017
36	0xbd91e3ca	-0.071235254
37	0x3d9bde70	0.07610786
38	0xbe4a9714	-0.19784194
39	0xbe11b462	-0.14228967
40	0xbca29c0f	-0.019849805
41	0xbd05292a	-0.03250996
42	0x3dae7e5c	0.08520195
43	0x3cac9c47	0.021070613
44	0xbc94b7d5	-0.018154064
45	0xbe74b592	-0.23897389
46	0x3d9643c1	0.07337142
47	0x3e0a1f12	0.13488415
48	0x3e979ae6	0.29610366
49	0x3da15ccd	0.078790285
50	0xbde44e2e	-0.11147724
51	0xbe170528	-0.1474806
52	0x3ea9b8b3	0.33148727
53	0xbd0e8248	-0.034792215
54	0xbdb174e7	-0.086648755
55	0xbe6df1c5	-0.23236759
56	0xbd9d1d10	-0.07671559
57	0xbe5c9f59	-0.21545161
58	0x3dd166af	0.102246635
59	0x3d8018cb	0.06254729
60	0xbaf1722a	-0.0018420864
61	0x3dac20b5	0.08404676
62	0x3e07545b	0.13215773
63	0x3e52a1cf	0.20569538

decoder.2.weight f4 [256, 64]
0	0xbd83fc5b	-0.06444617
1	0x3c1c9e49	0.0095592225
2	0x3e07ed65	0.13274153
3	0x3e103b8a	0.14085212
4	0xbd57a2e6	-0.052645586
5	0x3cfbb57b	0.030726185
6	0x3dd6c34a	0.10486467
7	0x3c5ee961	0.013605447
8	0x3c8852b2	0.016640995
9	0xbd2ca6a6	-0.042151116
10	0x3d05d1da	0.032670833
11	0x3c3a7c08	0.01138211
12	0xbdb35115	-0.087556995
13	0xbd30556a	-0.043050207
14	0x3e217369	0.15766682
15	0x3ddd11e4	0.10794428
16	0x3e12c560	0.14333105
17	0x3d713918	0.05889234
18	0x3e0a4624	0.13503319
19	0xbb1e5762	-0.002416097
20	0x3d60107a	0.054703213
21	0x3d4f9cba	0.050686575
22	0x3e0ce1f1	0.13758065
23	0xbca4205a	-0.020034958
24	0x3dea11f0	0.114292026
25	0x3d8956a7	0.06705981
26	0x3b61e6ee	0.003446992
27	0x3d9da50a	0.07697494
28	0x39ce43e7	0.00039341973
29	0x3e02d360	0.12775946
30	0x3e002a09	0.12516035
31	0xbd658f56	-0.0560449
32	0x3843a754	4.664746e-05
33	0xbcffc475	-0.031221608
34	0xbd4695bd	-0.048482645
35	0xbd3d38a8	-0.04619661
36	0x3dd584ac	0.10425696
37	0x3ce9f1ac	0.028557621
38	0xbd9e6d12	-0.07735647
39	0x3dc6817e	0.096926674
40	0xbdb58976	-0.08864109
41	0x3e269b61	0.1627021
42	0x3cb27451	0.02178398
43	0x3d06f18f	0.032945212
44	0x3cdec278	0.02719234
45	0xbc8c8495	-0.017153064
46	0xbd2d4383	-0.042300712
47	0xbd6a18f3	-0.0571527
48	0x3de28319	0.11060161
49	0x3e19904a	0.14996448
50	0xbdb9b111	-0.09066976
51	0x3da43c4a	0.08019312
52	0x3e1dcea8	0.15410864
53	0xbdbfc0d4	-0.09362951
54	0x3d74d7ea	0.059776224
55	0x3cd8fe1d	0.026488358
56	0xbca4534c	-0.02005925
57	0x3b760d87	0.0037544684
58	0x3dcf8e39	0.10134549
59	0x3e0248da	0.12723103
60	0xbd8cc34e	-0.06873189
61	0x3cf50a2d	0.029912079
62	0x3df18149	0.11792237
63	0x3cbe6332	0.02324066
64	0x3e00eac1	0.12589552
65	0x3e02317a	0.12714186
66	0x3d83ab04	0.06429103
67	0x3d6d9b61	0.05800951
68	0x3e0e76c9	0.139125
69	0xbc6d6ebf	-0.014491736
70	0xbd277ef7	-0.040892567
71	0x3d99df8c	0.07513341
72	0x3de58c02	0.11208345
73	0xbd3c0f6a	-0.045913137
74	0x3dcfc51f	0.1014502
75	0x3ba5d15a	0.005060357
76	0x3e1420fe	0.1446571
77	0xbdb1e670	-0.086865306
78	0x3dd4d950	0.103930116
79	0xbcc5659e	-0.024096306
80	0x3d815e61	0.063168295
81	0xbc4d15af	-0.012517377
82	0x3dd79f01	0.105283745
83	0x3d03e2b7	0.032198634
84	0x3cd5cf0c	0.026099704
85	0xbd3bb83b	-0.045829993
86	0x3c2d3bb2	0.0105733145
87	0xbd752006	-0.059844993
88	0x3c504438	0.012711577
89	0x3e057762	0.13033822
90	0x3d398de6	0.04530134
91	0x3c664e77	0.014056793
92	0xbd07e7cc	-0.033180043
93	0x3de5b001	0.11215211
94	0x3d8208d8	0.06349343
95	0xbda0a016	-0.07843034
96	0x3d88a6fb	0.06672474
97	0x3d8b8660	0.06812739
98	0x3d67128e	0.05641418
99	0x3e04a6d9	0.12954272
100	0xbd9c612e	-0.07635723
101	0xbdb582ae	-0.08862816
102	0x3d5f43e5	0.05450811
103	0x3dc0b1b3	0.094088934
104	0xbd9a8588	-0.07545
105	0x3e1a3ae8	0.15061533
106	0xbd06d57d	-0.032918442
107	0x3ddef695	0.108868755
108	0x3d8bd3f0	0.06827533
109	0x3d0db251	0.034593884
110	0x3de504f4	0.11182585
111	0xbd9af5d9	-0.07566423
112	0x3dd760c4	0.105165035
113	0xbd95e6c7	-0.07319408
114	0xbd837239	-0.064182706
115	0xbb1ea130	-0.0024204962
116	0x3db3f315	0.087865986
117	0x3dc4c292	0.09607424
118	0x3e0dea71	0.13858964
119	0xbc9199a9	-0.017773466
120	0x3d931bf6	0.071830675
121	0x3dfbfe48	0.1230436
122	0xbdb009e6	-0.08595638
123	0x3de8b6e2	0.11363007
124	0x3da80cd0	0.08205569
125	0x3d6cb406	0.05778887
126	0x3e17e96d	0.14835139
127	0x3d20378e	0.03911548
128	0x3d8d7e0d	0.06908808
129	0xbcf2529e	-0.02958041
130	0xbd1d278e	-0.0383678
131	0xbd9d51ae	-0.07681595
132	0x3e1ab8a3	0.15109496
133	0x3e1dc038	0.15405357
134	0x3dde0453	0.108406685
135	0x3d90769a	0.070538715
136	0xbd971a01	-0.07378007
137	0x3d4eb6d1	0.050467316
138	0xbd735fe4	-0.05941762
139	0xbd9a7386	-0.075415656
140	0xbd75aaff	-0.059977528
141	0x3d9a7ced	0.07543359
142	0x3d0680a4	0.032837525
143	0x3c5ea15f	0.013588279
144	0x3e21bc0c	0.1579439
145	0xbd2f4e69	-0.042799387
146	0xbd9d85cf	-0.076915376
147	0x3af0edb3	0.0018381387
148	0x3d2c57e1	0.042075995
149	0x3b926b65	0.004468369
150	0x3d995f34	0.07488862
151	0x3d99990b	0.07499894
152	0xbd8a3a67	-0.067494206
153	0xbdaa3aaa	-0.083119705
154	0x3d633bb7	0.05547687
155	0x3e0af220	0.13568926
156	0xbb1089d9	-0.002205482
157	0xbd336642	-0.043798693
158	0xbc0e0b3c	-0.008669671
159	0xbcde7b16	-0.027158301
160	0x3ce467a9	0.02788146
161	0x3de8c83d	0.113663174
162	0xbdb078db	-0.08616801
163	0x3ded3fc9	0.11584432
164	0x3cff7904	0.031185634
165	0xbdb0becd	-0.08630142
166	0xbc7533a7	-0.014965928
167	0xbb99822e	-0.004684708
168	0xbcc65510	-0.024210483
169	0xbd89ee5f	-0.06734919
170	0xbc0664ba	-0.008202726
171	0x3d6e873c	0.05823444
172	0x3d481b13	0.048853945
173	0x3cf76b9c	0.03020268
174	0x3d6a8f4a	0.057265557
175	0xbc628f4d	-0.013828111
176	0x3cd2e38e	0.025743272
177	0xbab8f6aa	-0.0014111598
178	0xbd8d0b21	-0.06886888
179	0x3c84b853	0.016201174
180	0x3d93621c	0.07196447
181	0x3d9acd81	0.07558728
182	0x3e03e4ae	0.12880203
183	0xbd509e3e	-0.05093216
184	0x3deda1f0	0.11603153
185	0x3e098fa5	0.13433702
186	0x3e04450e	0.12916967
187	0xbd184295	-0.037172873
188	0x3dfbb882	0.122910514
189	0x3e137532	0.14400175
190	0x3b333e0f	0.0027350222
191	0xbcd97c99	-0.02654867
192	0x3c15ee32	0.0091510285
193	0xbd9446e7	-0.07240086
194	0x3ca3e43c	0.020006292
195	0x3dfd38c8	0.12364346
196	0x3c8219f7	0.015881522
197	0x3c5700a7	0.013122714
198	0x3ce8142d	0.028329933
199	0x3d072594	0.03299482
200	0xbd908c2a	-0.07057984
201	0xbd87e5c8	-0.06635624
202	0xbcc22b82	-0.023702387
203	0xbd2d4ac4	-0.04230763
204	0x3df0cdb9	0.117579885
205	0x3e0c161d	0.1368031
206	0xbd3de405	-0.046360034
207	0x3c717b6d	0.0147389
208	0x3dcc7390	0.09982979
209	0xbd82fb9d	-0.06395648
210	0x3d8a3959	0.067492194
211	0xbd206b1e	-0.039164655
212	0xbb803060	-0.0039120167
213	0x3d13e5d6	0.03610786
214	0x3de4adae	0.11165939
215	0x3d7c3305	0.061572094
216	0x3e0dba97	0.1384071
217	0x3d4d8b11	0.050181452
218	0x3dfa7f4f	0.122313134
219	0x3dc0b41f	0.09409355
220	0xbd7f4d60	-0.06232965
221	0x3e063761	0.13107063
222	0x3d36913a	0.044572093
223	0x3d332292	0.04373414
224	0xbb0e9b6f	-0.0021760126
225	0x3ded3c9c	0.11583826
226	0xbc0940e8	-0.008377291
227	0xbd9041e3	-0.07043817
228	0x3df818e0	0.121141195
229	0xbc5e313b	-0.013561542
230	0x3dd52a38	0.10408443
231	0xbcf156b1	-0.029460283
232	0x3d521960	0.05129373
233	0x3d551821	0.052024964
234	0x3de61f55	0.11236445
235	0x3e13de2a	0.14440218
236	0x3d9fa584	0.077952415
237	0xbd382e9c	-0.044966325
238	0xbd745011	-0.05964667
239	0x3dbd35a8	0.0923875
240	0x3da73f7a	0.08166404
241	0x3c827dc0	0.015929103
242	0xbd2d94f0	-0.042378366
243	0xbaf5a546	-0.0018741272
244	0xbc96ddc7	-0.018416299
245	0x3d9ad127	0.07559424
246	0xbd987f74	-0.07446185
247	0x3d860070	0.06543052
248	0xbd11ef4a	-0.035628594
249	0x3e1062f3	0.14100246
250	0x3dde69f3	0.10860052
251	0xbd768bc5	-0.06019189
252	0xbbe6622d	-0.0070307464
253	0x3d8435f1	0.06455601
254	0xbd503c3a	-0.050838687
255	0x3b3af624	0.002852806
